reservoir_pinn.pth (torch, 975090 bytes, 15 tensors)

net.0.weight f4 [200, 4]
00000000: eba1 c63e ea9c d03e 2cdd e2bd e19f ef3e
00000010: 4b7f d1bd 091c c13d 656f 72be 3ddc 9b3e
00000020: 6114 dd3e 9da8 b9be ea0b dc3e 2405 ab3d
00000030: ff85 bd3e 8ddd 933d 9d5a 723e 5a72 86bd
00000040: 7cc4 c43e 3d07 8b3d 8fc9 68be 050b fb3d
00000050: 50c0 68be 7bc9 5ebd 1030 52be caa0 ad3e
00000060: 9f7b c4be 614b 69be e4b5 12be e8da 9cbe
00000070: a039 333d b9e0 f9be 30f4 e43e 4262 ddbe
00000080: f287 cb3e 6669 8e3d 9fc2 19be 1dfb a63e
00000090: 56f2 9d3d aefc cf3e 895d 5c3d 3c77 1abe
000000a0: 0280 0c3e df00 03be ca73 4e3e b789 e83e
000000b0: a08b 943e 69c0 59be ac5e 903e 9231 c63d
000000c0: 2d6c 843e 0d37 9cbe 627f fcbe 3bd5 43be
000000d0: 8741 c3be b362 d13e 08c2 143e 7447 5e3e
000000e0: 6ef3 283e b56c d4ba 9812 c43e 6df6 b4be
000000f0: ed4e eb3c 74c6 aebe 1a48 1c3e 0a5c 33be
00000100: f1c9 223e cb6e c7bd c4d9 d03e 8157 96be
00000110: 4b7e 96be 4bc5 95be 5d66 e33e beac 303e
00000120: 4af4 f53e 752f d1be 2cd6 ffbe 2f36 c9be
00000130: 952d abbe 8d0e 4e3e 6ae5 373e 07de da3e
00000140: 6007 87be 18c2 acbe c66d 863e 797b 5abe
00000150: b4a9 9c3e 5ce3 e9bd 8b46 903e 79fd c4be
00000160: d9e8 81be 258f 193e 8f50 da3d bdfd 11be
00000170: 554d 943e d865 aa3e ae39 b6be cd01 8cbe
00000180: a59d e83e c41c 2fbe 76ce 32be 83d8 fbbe
00000190: 3867 92be 3397 ec3d 3b15 72bd 3b25 bebe
000001a0: 01b6 363c 9b75 b2be 88b1 d5be 3c10 8ebe
000001b0: b3f2 e2be f4b1 9fbe 85e2 fb3e 9489 b43d
000001c0: 0f5d 1d3e 269e ebbe 7693 aabe c7be 2abe
000001d0: 3085 a73d e8b1 e2be c224 59be e809 9bbe
000001e0: f6a7 2eb9 08a2 32be 685a 38bd 73e1 b4be
000001f0: 5333 b4be c284 98be 7ab2 29be f97d cabe
00000200: 2066 d73e e135 bdbd 6c85 d83e cc75 273e
00000210: f0ef d8be 5726 b13e ea7b 0bbe ac9b 4dbe
00000220: 61be d6be e4c8 fcbe 8844 0f3e 4b95 e7bd
00000230: 238e 473e e8e8 cebe 7791 ba3e dc71 b9be
00000240: 0db9 b2bd 0388 de3d f119 823e addc ca3e
00000250: ec6e e93e 7276 c7be f945 f23d beb3 67be
00000260: 146c 8cbd d43e babe da12 e33e 3e93 c1be
00000270: 5b90 843e 4fec 3c3e 6850 1c3e b87f 8ebe
00000280: dbf0 e43e 6399 ea3d a1ec 723d 715b e2be
00000290: dde4 503e 8f50 a4bd 6264 65be b55a db3e
000002a0: a675 dd3d 9348 92be ced6 7cbe dae4 03bd
000002b0: 5f6b 8c3e 80f0 07be 0ca6 8fbe 9a86 38be
000002c0: d467 c0be 22be 333e de32 c33e 9910 febe
000002d0: e897 e23d 3055 803e 2945 c93d cfae 47be
000002e0: 3b0e 853e 7a19 833e 56f9 423e 9267 9ebd
000002f0: e848 08be 4cbb 463d d3d7 aabd f634 1bbe
00000300: 6d91 a83e 81b9 d73e 974b 2abd 9c4f d4bd
00000310: 5659 af3b ed09 f9bc 8380 f43d fe86 1a3e
00000320: 8217 e5be 2e14 36be 574d d43e a964 4e3e
00000330: 29ef f6bc f676 9dbe f90b 98be d288 f0be
00000340: cb78 2dbe 2f1d 323e 8c8b 9f3e 982e 763e
00000350: d55a e0be de56 97be 6a8a aabd ff86 fc3e
00000360: 55b7 883d 136c fcbd 2cb8 4d3e d124 4cbe
00000370: b379 a0be ee6c b63e 24a9 60be 5f36 b7bd
00000380: f34b fabe 59b6 ad3e 939d bf3e 30b5 413e
00000390: a4cf adbe d8b6 f9be 4693 d1be 982c c13e
000003a0: 7976 7d3e 9274 d63e 1d1c 873e d656 123e
000003b0: 035d 8ebb 79a0 c7be 6e54 d4be 7a19 f5be
000003c0: fa5f 533e 6df1 7dbe 7eca cabd bc45 8ebe
000003d0: bd88 b6bd 4686 b5be d24e a5be 60f4 293e
000003e0: 352b 0bbe dc7d 9a3e 2e8e 1bbe c631 bbbe
000003f0: 5315 bbbd e059 80be 52a1 10be 4c18 00bf
0.3879541 0.40744716 -0.110773414 0.46801665 -0.10229357 0.094291754 -0.23675306 0.30441466
0.4317961 -0.36261454 0.4297784 0.0835059 0.37016293 0.07219992 0.23667379 -0.065647796
0.38431156 0.0678849 -0.22733139 0.12257961 -0.22729611 -0.054391365 -0.20526147 0.33911735
-0.38375565 -0.22782661 -0.14327198 -0.30635762 0.043756127 -0.48804262 0.4471755 -0.43239027
0.39752156 0.06953697 -0.15015648 0.3261346 0.077122375 0.40622467 0.05380014 -0.15084547
0.13720706 -0.12793301 0.20161358 0.45417568 0.29012775 -0.21264805 0.2819723 0.096774235
0.25863782 -0.3051075 -0.49315935 -0.1912431 -0.3813593 0.40895614 0.14527142 0.21706945
0.16499111 -0.0016206714 0.38295436 -0.35344258 0.028724158 -0.34135783 0.1526188 -0.17515579
0.15897347 -0.09737929 0.40791142 -0.29363635 -0.2939323 -0.29252085 0.44414034 0.17253396
0.4803794 -0.4085652 -0.49968088 -0.3929915 -0.33433214 0.20122738 0.17958608 0.42747518
-0.26372814 -0.33741832 0.26255625 -0.21336164 0.30598223 -0.114203185 0.2817882 -0.38474634
-0.2537296 0.14996012 0.106598966 -0.1425695 0.2896525 0.33280826 -0.3559088 -0.27345124
0.45432773 -0.17100817 -0.17461571 -0.49188623 -0.28594375 0.115522765 -0.05910228 -0.3713778
0.011151792 -0.3485535 -0.41737008 -0.2774676 -0.4432579 -0.31190455 0.49196258 0.088153034
0.1536753 -0.46019095 -0.3331563 -0.16674338 0.081797004 -0.44276357 -0.21205428 -0.30280995
-0.00016656503 -0.17444623 -0.045008093 -0.35328254 -0.35195407 -0.29788786 -0.1657199 -0.39549235
0.42070103 -0.09238792 0.42289293 0.1635353 -0.42370558 0.34599563 -0.13621488 -0.20078915
-0.41942123 -0.49372017 0.13990986 -0.11307772 0.19487815 -0.40412068 0.36439106 -0.3621968
-0.08726702 0.10865786 0.25410417 0.39621487 0.4559244 -0.38957554 0.118297525 -0.2262716
-0.06856552 -0.3637606 0.4435032 -0.3780765 0.25891384 0.1844952 0.15265048 -0.27831817
0.44715008 0.114550374 0.0593077 -0.4421039 0.20399804 -0.08023178 -0.22401574 0.4284264
0.10813455 -0.28570995 -0.24691316 -0.03220067 0.27425668 -0.13275337 -0.2805637 -0.18020096
-0.37579215 0.17552999 0.38124746 -0.49622038 0.1106413 0.25064993 0.098276444 -0.19500278
0.2598742 0.25605375 0.19040427 -0.07734598 -0.13309062 0.048518464 -0.083419465 -0.15156922
0.3292345 0.42133716 -0.041575994 -0.10366747 0.005351226 -0.03040024 0.11938574 0.15090558
-0.44744498 -0.17781135 0.41465256 0.20155586 -0.030143337 -0.30754822 -0.29696634 -0.46979386
-0.1694061 0.17393945 0.31161153 0.24041212 -0.438193 -0.29558462 -0.08327182 0.49321744
0.06675593 -0.12325301 0.20089787 -0.1993592 -0.3134285 0.35629982 -0.21939522 -0.08945917
-0.4888607 0.33928183 0.37424907 0.18916774 -0.3394748 -0.4877231 -0.40932673 0.37729335
0.24752225 0.4188581 0.26388636 0.14290938 -0.004344584 -0.38989618 -0.41470665 -0.47871
0.20642081 -0.24799128 -0.099019036 -0.27787578 -0.089127995 -0.35454005 -0.32286698 0.16597128
-0.13590701 0.30174148 -0.15190956 -0.36561412 -0.09134927 -0.2506857 -0.14124039 -0.50037074

net.0.bias f4 [200]
00000000: aea0 bcbd 01cf 553e ecfb e7be 1919 963e
00000010: fd3e 27be 91c8 c1be e008 8d3d 545f 7a3e
00000020: d396 e33e 816a 98be 85de 75be 47ab d23d
00000030: f72f 0a3e a8d9 4d3e f0b4 903e f037 edbd
00000040: f92f 913e 9da5 bf3e 32b9 04be 5b7a bb3e
00000050: 234a 713e 8e22 e43e 8adc 96be 07f4 81be
00000060: 1b94 1dbe 09db 9c3c 467a 983e b176 96be
00000070: c281 7f3e da32 3abe f08f 963e 29c3 b9bc
00000080: 57e5 ddbe 3e01 91be 106a bbbe 33b3 813e
00000090: 58a9 b0be a9c1 57bd 7739 d23d 10ab 8bbe
000000a0: 56f9 163e 4641 fdbe 1096 babe 2918 ecbe
000000b0: 6425 2fbe 6e8e 46be 541e a53d 701d c4bd
000000c0: 29d6 783e 474b ef3e c450 3e3e 3614 5abe
000000d0: b3e7 ecbe f011 423e ecca 82be ca02 873e
000000e0: fe86 ae3e 3074 443e 52e4 f73e 67de ef3e
000000f0: 5ea4 ee3d 8de6 bbbe 7ace e83e 78a0 80be
00000100: 508f 77be 0b45 d93e 9d0d ca3e d46f 123e
00000110: 9520 0a3d 170e dabe f2a3 39bd b3e7 fe3e
00000120: f91f 053e 1bb1 313d 58a1 d9bd c246 3abe
00000130: 3b8f 9a3e b26e 273d 0d97 ac3e 653a acbd
00000140: 194b 633e 5881 4a3e f052 973d 9334 9b3e
00000150: c596 a23e 88b8 f03e d52f c93e 9fb4 f5bd
00000160: 8d34 ddbe 9b1b cd3d 9be8 3fbc e879 06be
00000170: f131 b6bd fde0 963c 4582 be3e 902e 243e
00000180: cdbd 3ebe 6cda 59be 4718 e1bd 7374 4dbe
00000190: a532 ea3e 2d0b 813e 7dff eb3e e6d4 2d3c
000001a0: 109a c33d 4fe9 2c3e ad69 f4be 9e23 4b3d
000001b0: 9d30 dfbc d125 92be 9708 c4be 91f7 e73e
000001c0: c203 d23e f96a 743e 429d f93e 919d 5dbe
000001d0: dbf1 bebd ed46 4b3e de79 b4bd ae73 d1bd
000001e0: e605 d7be 03e7 103e 5ed9 95be 6f05 be3c
000001f0: 6e02 fd3e 5fd2 25be 60ed 27be 2eb7 8f3e
00000200: 516d 3fbe c571 09bd d92d f23e f898 5cbe
00000210: f693 babe 4721 93be b512 17be f8e8 70be
00000220: f94a 81be 6d63 5d3e df01 ad3d 3dc6 1abe
00000230: a3c2 c7be 2eef 2bbe 305a 6abe 0514 2dbe
00000240: 9107 e6be a4bb e73d 6893 c0be 50dd c0be
00000250: 8c01 d6be 7984 5a3e 4882 9dbe 6580 59be
00000260: 8eb7 cb3e 7525 903e dc21 933e 4b48 f7be
00000270: 9127 bbbe 82da 4abe d26f d63e 5bc7 2e3d
00000280: d7d1 c5be 952a 8a3b 8e45 c9be 309d e0bd
00000290: fdf6 0abe 866b e33e 59f3 233e bc80 b1bd
000002a0: 50f8 c53d 52ee 1abe 966e 573e 3649 523e
000002b0: a1fe 073e bc3a 44be 10dd dd3e 16de 9ebd
000002c0: 2113 52be 26b9 a73e a7da d33e 3c63 fe3e
000002d0: 9c64 1f3e 4581 3fbe d97e 823e f32a e33e
000002e0: 67d0 fabe 60bc 61bd 6a85 b4be f5c2 c83d
000002f0: 257f 5b3e c465 d7bd 48cd 4cbd 2b7d 693e
00000300: fa93 97bd e0a7 d6be fcd9 cd3e 4044 89be
00000310: e377 82bd 764e 2f3d afcb ecbc 33d6 f4be
-0.09210335 0.20879747 -0.4530939 0.29316023 -0.16332622 -0.37848333 0.068864584 0.24450427
0.44451007 -0.29768756 -0.24010666 0.10286575 0.1349486 0.2010256 0.28263044 -0.11582935
0.28356913 0.3743104 -0.12961271 0.36616787 0.23563437 0.44557613 -0.29465133 -0.2538149
-0.15388529 0.019147413 0.29780787 -0.2938743 0.24951842 -0.18183461 0.2940669 -0.022676067
-0.43339035 -0.2832126 -0.36604357 0.2533203 -0.345042 -0.052674923 0.10264867 -0.27278948
0.14743552 -0.49463862 -0.36442614 -0.46112183 -0.17104107 -0.1939027 0.08062425 -0.09575927
0.24300446 0.4673712 0.18585497 -0.21296772 -0.46270522 0.18952155 -0.25545442 0.26369315
0.34087366 0.19184947 0.48416382 0.46849367 0.11652444 -0.36699334 0.4547003 -0.25122428
-0.24175763 0.42435488 0.3946351 0.14300472 0.03372248 -0.42588875 -0.045322366 0.49786147
0.13000478 0.04338179 -0.10626477 -0.18191054 0.301874 0.04087705 0.33708993 -0.084095754
0.22196616 0.19775903 0.07388866 0.30313548 0.31755653 0.47015786 0.39294305 -0.11997341
-0.43204156 0.10015031 -0.011713172 -0.13132441 -0.08896244 0.01841783 0.37208763 0.16033387
-0.18627091 -0.21274728 -0.10990959 -0.20063953 0.45741764 0.2520384 0.4609336 0.010609841
0.095508695 0.16885875 -0.47736874 0.049594514 -0.02724486 -0.28544477 -0.38287804 0.45306066
0.41018492 0.23868932 0.4875279 -0.21642138 -0.09323474 0.19851275 -0.08812307 -0.10227142
-0.41996688 0.14150624 -0.292674 0.02319595 0.49415916 -0.16193531 -0.16399145 0.28069443
-0.18694045 -0.033555765 0.47300604 -0.21542728 -0.3644101 -0.28736326 -0.1475323 -0.2352637
-0.25252512 0.21619959 0.084476225 -0.15114684 -0.39015684 -0.16790459 -0.22885966 -0.16902168
-0.44927648 0.113150865 -0.37612462 -0.37668848 -0.41798055 0.21339597 -0.3076346 -0.21240385
0.3978848 0.28153577 0.2873677 -0.48297343 -0.36553624 -0.19809917 0.41882187 0.04267059
-0.38636658 0.004216502 -0.3931088 -0.10967481 -0.13570781 0.4441797 0.16010799 -0.08667132
0.096665025 -0.15129974 0.21038279 0.2053574 0.13280727 -0.1916303 0.4333272 -0.07757203
-0.2051511 0.32758445 0.41377756 0.49685085 0.15565723 -0.18701656 0.25487402 0.44368705
-0.48987123 -0.05511129 -0.35258037 0.0980281 0.2143522 -0.10517457 -0.05000046 0.22801654
-0.07401271 -0.41924953 0.4020537 -0.26809883 -0.06370523 0.042799436 -0.028905718 -0.4781967

net.2.weight f4 [200, 200]
00000000: 13a6 1f3d 97ba e0bc d7b2 29bd 4e5f 4b3c
00000010: de7b f9bc c684 e7bc 72a6 a7bc 6f3f 03bd
00000020: 1d81 cbbc 53c9 3fbc 7811 5b3c 033e 7fbd
00000030: 23d0 1bbd acbd 923b 8b6d a13b 1df4 093d
00000040: 1651 60bd c145 873c 635e 393d 073e fa3c
00000050: 564f 93bd a6b6 02bd 2e7f 66bd 2211 1ebd
00000060: 5e9d 3e3d 08d0 80bb 822d 0b3d 0ccd 41bd
00000070: 3d6c 4f3c 4987 24bd 700b e43c 4029 debc
00000080: a5e7 b4bc ee2e 66bd 14f1 bfbb db4b 7d3d
00000090: e86f f23c dbf5 2dbd d8ea 94bb 6d3d 16bc
000000a0: 1135 6fbd a6cf 7b3d 7ea2 0f3c fa7e b23c
000000b0: 1440 0abd 0f1f c9bc 92b0 fa3b 7c84 003d
000000c0: 59b3 b73c b02a 31bd 701e 803d bd7c 48bb
000000d0: be69 43bd 28a6 25bd 0be8 843d 049e a03b
000000e0: 5c09 75bc e63a e0bc 2077 cdbc dc1a 65bd
000000f0: 858c 75bd 8cc4 423d 243f 863d 8f00 993d
00000100: 01ae 65bd 3e61 073d 0141 1cbd 8bfe 143d
00000110: e689 423d 09cb 4d3d ad42 383d eb7b 453d
00000120: a6a3 e83a e8f4 d43c 7e82 9bbc 72f9 1d3d
00000130: bfad 92bc b08c dbbb 71f3 89bd 3617 41bc
00000140: 78b6 31bd 7d4b aabc 71ae 51bd e62b 8fbd
00000150: 32ae 1d3c 437b 4c3d 3987 6f3d 0f0d 183d
00000160: 7b70 fbbc 84f7 83bd 5bb9 fd3c cad8 1e3d
00000170: e24f 88bd cab6 f53c 61f8 623d d9ef 90ba
00000180: aa25 17bd ea1d 843d a6d5 f53c 6811 2c3d
00000190: 0f97 33bd 9ece 363d cdaa 34bd 02f2 873d
000001a0: 4a94 cbbc 86ed 3f3d 3245 c73c f7e4 5a3c
000001b0: 7040 bdbb 70d7 133d ed08 c1bc 4834 7dbd
000001c0: 91dc 03bd 902b 4c3d 9af4 5dbc 037f 993c
000001d0: 1421 abbc ab52 403d 6806 463d f522 bc3c
000001e0: 4485 f5bc 44c7 82bd a876 033c 8735 10bd
000001f0: d5b8 823d fe0f 98bd 3dbc 1a3d 2d7a 813d
00000200: 6598 2d3d 2df4 9c3c 54cf 82bd d205 813d
00000210: f36c 6fbc 82af 8abd a09d 973d 9f68 babc
00000220: 0a64 13bc 3ce7 793d ead2 32bd ef74 5ebd
00000230: 8e53 9d3c 3c84 44bb 9bc6 b33c 50eb 83bd
00000240: 23af 043c 1557 17bd 1522 ebbc 8367 8cbd
00000250: 2a57 393d 05f2 003c 2f89 5ebd b450 7c3d
00000260: 28f7 8d3c 6d63 843c e296 50bd d9ff 983c
00000270: b4ef 803d ee16 5b3d ec44 4abd acdf 8b3d
00000280: 4187 6a39 bfe0 de3c ce4d 4c3d 8aaa 613d
00000290: 4868 7ebd 01f6 873d 0749 58bd 6550 9838
000002a0: 9b72 31bd 7fe7 2bbc d15b 263b 92e6 51bb
000002b0: 8692 98bc 52cc 4a3c 131b 9a3d a7fd 3f3d
000002c0: ae19 0c3d 5d6c fe3c f8b7 483d 3292 42bc
000002d0: 0814 19ba 13e5 3a3c 33fe 8abd 3292 86bd
000002e0: 7acd 2e3b 3820 0abd 11dd debb deea 58bc
000002f0: 3d51 b43b 9d58 523d a715 90bc 60d0 763d
00000300: 1d48 783d b7b5 4ebd d018 77bd 3021 7fbd
00000310: 7474 37bd 82d6 b6bc b5d1 2abc 3aee 4fbc
00000320: 47f0 fdbc 9931 88bc 0fab 01bd d245 7b3d
00000330: 7357 afbc 58d7 30bd 9f16 f63c 73b2 1fbc
00000340: 4af8 703d 178d 483d 23ca 703d 129d 6dbd
00000350: 6f21 513d daa5 863d d952 28bd 8b84 733d
00000360: 8868 403d b0b8 96bb 7dfa 1e3d a9b5 8cbc
00000370: befc 88bd 27c2 3b3c bdc0 903c 8e8c 27bd
00000380: 9e57 083d e509 58bd dbc6 893d e459 813d
00000390: eff2 d03c 2987 48bd b818 f53c 1cbe 293c
000003a0: 1066 533c b26a f43c 7d41 483d 9a6d 14bd
000003b0: dfc1 b2bc 23a4 553c 5dfe 0a3b ff79 483d
000003c0: cb80 22bd bdf0 1f3b 590d 3e3c 017f 61bc
000003d0: 7072 303d c7d3 4d3c 75e4 88bd dd27 2eba
000003e0: a970 dfbc a707 25bb adbd 5abc c548 89bd
000003f0: 893c 98bc 2df8 0abc 6ac9 d9bc a367 913d
0.03897674 -0.027432723 -0.04143032 0.012412859 -0.030454572 -0.028261553 -0.02046511 -0.032042917
-0.02484184 -0.011705714 0.013370864 -0.062315 -0.03804029 0.004478177 0.0049263886 0.03368007
-0.05476483 0.016512753 0.04525603 0.030547155 -0.071928665 -0.03191247 -0.05627363 -0.038590558
0.046536796 -0.0039310493 0.033978947 -0.04731469 0.012660083 -0.04016808 0.027837485 -0.027119279
-0.022083113 -0.0561971 -0.005857596 0.06183992 0.029594377 -0.042470794 -0.004544597 -0.0091699185
-0.058400217 0.061477326 0.0087667685 0.021789063 -0.033752516 -0.024550943 0.0076504434 0.031376347
0.022424387 -0.0432536 0.062558055 -0.0030591928 -0.047708265 -0.040441662 0.06489571 0.0049016494
-0.014955845 -0.027371835 -0.025081217 -0.05593382 -0.059948463 0.047550723 0.06555012 0.0747081
-0.056074146 0.03305172 -0.03814793 0.036375564 0.04749479 0.050242458 0.044985462 0.04821388
0.0017748966 0.025995687 -0.018983122 0.038567968 -0.017905114 -0.006700121 -0.06735886 -0.011785319
-0.043386906 -0.020787949 -0.05119175 -0.06990795 0.009624051 0.04992224 0.058478568 0.03712183
-0.030693283 -0.06443694 0.030972173 0.038780965 -0.066558614 0.029994387 0.055412654 -0.0011057808
-0.036901154 0.06451018 0.030009102 0.042008787 -0.043845233 0.04463064 -0.0441082 0.06637956
-0.024850983 0.04685738 0.024324987 0.013360254 -0.005775504 0.03609413 -0.023563826 -0.061817437
-0.03219277 0.049846232 -0.013547087 0.018737322 -0.020889796 0.04695384 0.048345953 0.022965888
-0.029970773 -0.06385663 0.008023895 -0.035207298 0.0638291 -0.07424925 0.037777174 0.06322131
0.042381663 0.0191594 -0.06387201 0.06299938 -0.014613378 -0.06771757 0.074031115 -0.022754965
-0.008996019 0.061011538 -0.043658175 -0.054310735 0.019204881 -0.0029986044 0.021945288 -0.06441367
0.0080983965 -0.036948282 -0.028702775 -0.06855681 0.04524914 0.007870202 -0.054330047 0.061600402
0.017329767 0.016160691 -0.050925143 0.018676685 0.0629572 0.053488664 -0.049382135 0.068297714
0.00022366365 0.027206777 0.049878888 0.05509428 -0.06211117 0.066387184 -0.05280402 7.2628995e-05
-0.043322187 -0.010492205 0.0025384317 -0.00320283 -0.018624555 0.012377815 0.07524695 0.04687276
0.034204178 0.031057531 0.04900357 -0.011875676 -0.00058394717 0.011407155 -0.06786766 -0.06570853
0.0026672767 -0.033722132 -0.0068012555 -0.01323959 0.0055028484 0.05135404 -0.01758845 0.060257316
0.060615648 -0.050466266 -0.060326397 -0.06228751 -0.044788793 -0.022319082 -0.010425975 -0.012691075
-0.030998362 -0.016625213 -0.031657275 0.061345883 -0.021404004 -0.043174118 0.030040083 -0.009747135
0.058830537 0.04896268 0.058786523 -0.058011122 0.051057275 0.065746024 -0.041094635 0.059452575
0.04697469 -0.004599653 0.038813103 -0.017176466 -0.06688832 0.011459864 0.01767003 -0.040905528
0.033286683 -0.05274381 0.06727382 0.063159734 0.025506465 -0.048957024 0.029919013 0.010360267
0.012902752 0.029836033 0.04889058 -0.036237337 -0.02182096 0.0130396215 0.0021208741 0.04894447
-0.039673608 0.0024404966 0.011599862 -0.01376319 0.043077886 0.012562699 -0.066842 -0.00066435133
-0.0272754 -0.0025181563 -0.013350886 -0.06703333 -0.018583553 -0.008482021 -0.0265853 0.07099845

net.2.bias f4 [200]
00000000: 7f89 073d b9d1 beba be61 71bd 7338 433d
00000010: 4232 e7bb 8db4 ddbc 55f4 5bba f13e eebc
00000020: 2076 43bd 9b5e aa3b c405 e1bb 265f 643d
00000030: 5bee 1ebd 6f95 0fbc 7f89 35bb bef4 29bd
00000040: c7a1 443d a205 76bd 2562 c8bc 626a d4bc
00000050: 21df 163d b615 91bb 572a e2bc 69d2 ae3c
00000060: 5887 783c 5e1e 613c 082b 733d 6c78 3a3d
00000070: 9647 b6bc aca6 523d 3577 963d 5925 083d
00000080: 9a63 82bd 58d8 acbb c242 34bd da8f c3bc
00000090: 54f3 69bd 6ea6 bf3b 4daa 5cbd 4540 be3c
000000a0: e7c8 d6bc 90b5 923d 548a 38bd 37a4 4c3d
000000b0: c164 573d 7222 27bd 7c17 953d 3d6c 98bd
000000c0: 75c9 1c3d 8986 3fbd 4004 963d 7cba 713c
000000d0: 67ba 8fbd 5c41 093d 4a95 09bd fe9f 05bd
000000e0: da2b 433d 8b2e 833d 8909 913d a217 803b
000000f0: 9e79 a13d 64d8 ee3c ff61 a43d 804f 893d
00000100: 1837 48bb a419 2a3d 0069 063d 243d a43c
00000110: 3365 31bc 632a 57bd dc46 803d 160c 91bd
00000120: ab3e 54bd 2e9a 1abc 31c0 3fbc e611 813d
00000130: 4c16 6b3b a86f 79bd 651e 803d efca cd3c
00000140: bc2e 77bd d8b5 843d 290f 40bd d99f 00bd
00000150: dcf4 813d f30a cf3c 5b2b 613d d5f7 1fbc
00000160: 363e 63bd 65ca 66bc fb1d fd3c d942 6e3d
00000170: 3e51 c43c 38af cbbc 69ee 453d 6915 363d
00000180: 46b8 80bd 7f52 0bbd 692f 7fbd ab00 62bd
00000190: b00f 213d c0ca 8a3d 605c 82bc 2815 dcbc
000001a0: 53ce f83a 3b4c 50bd edd1 613d 7751 a3bc
000001b0: b3b8 d63c 53ea 703d 54b2 6e3d f228 d23c
000001c0: 9a02 45bb 3e82 05bd e171 a43d 5b0e 90bb
000001d0: 25c7 8e3d d3fc 50bd 4fa7 9ebd 5c75 8c3d
000001e0: 7c77 3b3d b947 74bd 617a bd3c 332c 6bbd
000001f0: 74a4 b53c c85e b03c e7dc debc bd7d ca3b
00000200: 7c91 1ebd b408 4f3d 953e 68bd b3e5 833d
00000210: 1b8d 5dbd 391f 923d bd3e 833d d9fb e83c
00000220: 1b88 833c f3b0 6fbd 1390 01bb 6ec8 2d3d
00000230: 18ab babc 0ac0 85bc 9cce 03bd 69ed 22bc
00000240: 0978 89bc fae0 293d 31c3 c03c 857d 1cbd
00000250: 72d0 d2bc 4c88 00bd 95fe a8bd 2052 e3bb
00000260: 4195 96bc 1190 a93c 35fb b6bc 3dc8 023d
00000270: 6300 debc dc68 233d d545 8b3d 017d 5e3d
00000280: 043c 7f3d 3ba6 933c 6f9f 7c3c 0973 423d
00000290: 2897 9fbd dbe7 6e3d 3231 a9bc 7500 a6bd
000002a0: 2577 013d e974 70bd 872c 963b d042 2dbd
000002b0: dc89 c6bc 5ece c03b ec97 6d3d 85c4 93bd
000002c0: 2614 e7bc 5ce0 263d d61e 533d 6d22 833d
000002d0: 46aa 88bd e65f 8ebc 6541 abbb 01ae eebb
000002e0: 8e8d 943c 0463 183d 4231 25bc 0a07 9b3c
000002f0: 522d 603d 0fae 99bd 28be 163d 0c9f 5fbd
00000300: 58fb 3d3c 2f66 2e3d 5828 be3c d1ea 81ba
00000310: b421 1ebd 7581 343c 74d5 26bb 3edf 8e3d
0.03309011 -0.0014558352 -0.058931105 0.047661256 -0.0070555517 -0.027063632 -0.00083905953 -0.029082747
-0.047720075 0.005199266 -0.0068671424 0.055754803 -0.038801532 -0.008763655 -0.0027700362 -0.04149317
0.048005845 -0.060063966 -0.024460861 -0.025929634 0.036833886 -0.004427637 -0.02760808 0.021340566
0.015168987 0.01374015 0.05936721 0.045525 -0.022250932 0.051428482 0.07346956 0.033238743
-0.06366654 -0.0052748136 -0.044008978 -0.023872305 -0.05711682 0.0058486974 -0.05387335 0.023224005
-0.026218845 0.071635365 -0.045053795 0.049961295 0.05258632 -0.040804334 0.0727987 -0.0744252
0.038278062 -0.046759162 0.073250294 0.014753934 -0.07017975 0.033509597 -0.03358964 -0.032623284
0.047649242 0.06405362 0.07081897 0.0039090673 0.07884525 0.029155917 0.08026504 0.067046165
-0.0030550417 0.04152836 0.03281498 0.020048685 -0.01082735 -0.052530658 0.06263515 -0.07082383
-0.051817577 -0.009436173 -0.011703537 0.06302242 0.0035871444 -0.0608975 0.06255797 0.02512118
-0.060347304 0.064799964 -0.046889458 -0.031402443 0.06345531 0.025273776 0.054972988 -0.009763678
-0.05547925 -0.014086341 0.030898085 0.05816922 0.02396452 -0.024863824 0.04832307 0.044454012
-0.06285147 -0.03401422 -0.062301073 -0.05517642 0.0393216 0.06776953 -0.015913188 -0.026865557
0.0018982388 -0.05085395 0.05513184 -0.019936306 0.026211118 0.05881722 0.058275536 0.02565429
-0.0030061365 -0.03259491 0.08029533 -0.0043962426 0.069715776 -0.051022362 -0.07746755 0.06858322
0.045768246 -0.059638713 0.023129644 -0.0574152 0.022173144 0.02152957 -0.027204944 0.00617954
-0.038712963 0.05054541 -0.056700308 0.06440296 -0.054089647 0.071348615 0.06408451 0.028440403
0.016056111 -0.05851836 -0.0019769713 0.042427473 -0.022786662 -0.016326923 -0.03217946 -0.009944298
-0.01678087 0.04147432 0.023530575 -0.038205642 -0.02573416 -0.031379983 -0.08251683 -0.0069372803
-0.018381717 0.020698579 -0.022336582 0.031929243 -0.027099794 0.039894924 0.06800429 0.05431843
0.062313095 0.0180236 0.015418871 0.047472987 -0.07792503 0.058326583 -0.020653341 -0.08105556
0.031607766 -0.058705244 0.004582945 -0.042300045 -0.024235658 0.005883976 0.058006212 -0.072152175
-0.02820785 0.04074131 0.05154308 0.064030506 -0.06673102 -0.017379712 -0.0052263015 -0.0072839265
0.018133905 0.037203804 -0.010082545 0.018924255 0.05473072 -0.07503902 0.03680244 -0.05459504
0.01159557 0.04257792 0.023212597 -0.00099119 -0.03860636 0.011017193 -0.0025456818 0.06976174

net.4.weight f4 [200, 200]
00000000: 3962 3e3d e828 aebc a939 013d 6cbb ce3c
00000010: 2e03 3b3d 4c85 8cbc 9f40 f2b9 253b a53b
00000020: 00af 173c cd46 62bd 839f 463c 5645 873d
00000030: 3b56 33bd 9e9e 323c 224c 5ebc 20ac 14bd
00000040: 202c 81bc bc41 e73c cab8 d0bc 0fbf 2ebd
00000050: 4693 0fbd 9228 9ebc ee3f 35bd 28d4 2d3c
00000060: 78c0 e43c f5b4 e53c 543b e83c 9050 e23c
00000070: 10e9 643d 5f67 51bc 2c4f 403d 7e2a 633d
00000080: 5185 56bd 7bc4 dcbc 0852 87bb dcd4 183d
00000090: e8fb 833d 090d 13bc ac21 fc3c d6ea 93bc
000000a0: d54b 913c 2ae8 863d 2839 b4bc bc90 803c
000000b0: 054f 3b3c 419d c43b b482 633b d00d a3bc
000000c0: 4934 f23c a774 813d 6494 66bc cf8a 3abb
000000d0: f5a0 dabc d8b0 6fbd fe12 923d 492c 67bd
000000e0: fa98 853d 9137 21bd 896d 4b3c 7316 44bc
000000f0: e8c7 f03c a597 253d 765d 10bd 33e6 3f3d
00000100: ba29 37bd c0b9 363d 78d0 033d f842 803d
00000110: e231 3fbc 4c6e 693d e65d 15bd 1ce8 a03c
00000120: b040 ad3c 41e4 3d3c ea7d 663d 018d 09bd
00000130: 9e26 46bd 80e3 02bd 5d41 533d 63b2 cc3c
00000140: b5c2 623c 25b3 263d aae6 593d 05f9 89bd
00000150: fe08 1bbd e54e 8ebc 82d1 64bb 451f a4bc
00000160: ce4b 77bb a3bf 943d e923 2abc e3db 6d3d
00000170: 2f3e 11bd 3c65 c9bc 20d3 e8bb a413 cfbb
00000180: 3f86 8e3c 0049 483d 3a18 7bbd d30b 3c3c
00000190: b399 193d deea 303d aaeb 4cbd 3008 37bd
000001a0: 13cc 2f3d 5737 ecbc 8b97 ebbc 0158 37bd
000001b0: 3e0b a1bc a212 093d 7ecf 873c 6e86 913d
000001c0: a29c 2ebc 569f 8ebd 32c4 a13c 704b 1d3d
000001d0: cfd9 aa3c 7ea9 2a3d e8a3 8dbd c19d 5b3d
000001e0: 14b2 863d acd7 c33c 0e02 213d 37c7 babb
000001f0: b6e7 84bc 5726 0f3b 18f0 b3bc 6433 03bd
00000200: 6b8f eebb 786b c3bc 8ea0 05bd 61d7 b73c
00000210: 5fc9 06bd e9aa 703d 3053 263d 3866 223d
00000220: dcbc fe3c 0532 08bc b3c8 97bb 2ea7 6c3d
00000230: f5f1 673d d91e 173d fbcd 0c3d 3b2c 893c
00000240: 9525 75bd 9c88 2e3d eb62 40ba cd2b 28bc
00000250: 9b05 5cbd 0639 be3c 3888 ce3c f3e5 953c
00000260: 1722 863d cf7d 57bc aa06 883d 3513 79bd
00000270: 5410 ce3c 36d0 f23c 3cdd 37bd d693 2cbd
00000280: cb00 103d 257d 9d3c 6407 0a3c 6988 c03b
00000290: 44d1 a2bc 7fd2 2e3d 11b5 49bd 48bc 223d
000002a0: 568f c8bc 9957 79bd a9aa 5b3d 3da6 95bd
000002b0: 1ff1 c9bc 51a5 843d 3d5e 893d a39c 3c3d
000002c0: 51c4 bf3c 6f90 92bc 4490 ed3c 05e2 4b3c
000002d0: f5ad 77bd 9c32 283d b9ab 1b3c cf58 8cbd
000002e0: 047f d1bc 2f6f cb3c c7a8 923c c39b 8c3b
000002f0: 524c 1abd 9fb9 0dbd 3b90 e33c 74d8 873d
00000300: d3b1 723d e21f 4e3d e43e 233d 9296 d4bb
00000310: 10e8 75bd 5121 a63a a87b 15bc 8797 b53c
00000320: 9305 113d 543b 0c3d 3203 f4bc c3ed 2f3d
00000330: 1b44 4abd 827a bf3c b2ec 94bd 11e4 093d
00000340: 6898 1b3d 3eb5 f93c 4c15 07bd 201f ae3a
00000350: 0c1b 8fbc 2ebd eebc a10e 333d 1cf8 603d
00000360: 8ef0 8e3d 4467 1f3d 5a88 6438 b52f 86bc
00000370: 1515 2ebd 01ad 783d 1dea 85bc ff21 2dbd
00000380: 83fb 983b f756 d03c 200c 36bd bdf0 84bd
00000390: 34a9 1d3d 1508 2f3d 007b 9fbc 99f8 2cbd
000003a0: d106 883d a52c 363c 1bbf aa3c 7581 843d
000003b0: 7c8c 913d 507e acbc 98e0 e13c 3459 bc3c
000003c0: ea88 163c 4e7d ebbc bc74 0f3b 4cf4 0c3d
000003d0: a4fa 3abd 9435 96bb 8d95 963c b2f3 2ebd
000003e0: 6399 253d f13d dd3c c6ae a9bc 6051 83bb
000003f0: 427c 2b3c e99c 0f3d 1210 8fbc 7600 15bd
0.04648039 -0.02125974 0.03154913 0.025235854 0.04565733 -0.017153405 -0.00046205983 0.005042451
0.009258032 -0.055243302 0.0121229915 0.06605022 -0.043783408 0.010902075 -0.013567956 -0.036296964
-0.01576811 0.028229587 -0.02547874 -0.042662676 -0.03505256 -0.019306455 -0.04425042 0.010609664
0.027923808 0.028040389 0.028348602 0.027626306 0.05588633 -0.012780993 0.046950504 0.055460446
-0.052373234 -0.026949158 -0.004129652 0.037312374 0.06444532 -0.008975276 0.030777775 -0.018056314
0.017736355 0.065872505 -0.02199991 0.015694015 0.011432414 0.0060001914 0.0034715356 -0.019904047
0.029565947 0.06321078 -0.014073465 -0.0028464084 -0.026688078 -0.05851826 0.07132529 -0.056438718
0.065233186 -0.039359633 0.012416252 -0.011968243 0.029392198 0.040427823 -0.03524538 0.046850394
-0.044717528 0.04461074 0.032181233 0.06262773 -0.011669608 0.056989953 -0.0364665 0.019641928
0.02114901 0.0115900645 0.056272425 -0.033581737 -0.048376672 -0.031955242 0.051576007 0.024987405
0.013840367 0.04069819 0.053198494 -0.0673695 -0.037850372 -0.017371604 -0.0034914915 -0.020034442
-0.0037734392 0.07263114 -0.010384538 0.05807103 -0.035459694 -0.024584405 -0.007105246 -0.00631948
0.017397998 0.048897743 -0.0613024 0.0114774285 0.037500095 0.043192737 -0.050029434 -0.044685543
0.04291923 -0.028834982 -0.028758785 -0.04476166 -0.019658681 0.033465035 0.016578432 0.071057186
-0.010657461 -0.06963985 0.019746874 0.03840202 0.020855812 0.041665547 -0.06916028 0.053617243
0.065769345 0.023906551 0.0393086 -0.005700018 -0.01622377 0.002184292 -0.021965072 -0.03203143
-0.0072802803 -0.023854956 -0.03262382 0.022441568 -0.032906886 0.058756743 0.040606678 0.039648265
0.031095915 -0.008312707 -0.0046320795 0.057776622 0.056627233 0.036894653 0.034376126 0.016744724
-0.059850294 0.04261075 -0.00073389587 -0.010264349 -0.053716283 0.02322055 0.025211439 0.018298125
0.06549471 -0.013152554 0.06641896 -0.060809333 0.02515427 0.029640298 -0.04488872 -0.042133175
0.035157006 0.019224713 0.008424614 0.0058756364 -0.019875176 0.042681213 -0.049244944 0.03973034
-0.02448241 -0.060874555 0.05362955 -0.07307098 -0.024651108 0.06476844 0.06707428 0.046047818
0.02340904 -0.017891137 0.028999455 0.012444024 -0.060468633 0.04106389 0.009501391 -0.068528764
-0.025573261 0.02483329 0.017902745 0.004291029 -0.03767044 -0.03460085 0.027778735 0.06633082
0.059251618 0.050323375 0.0398549 -0.006487676 -0.060035765 0.0012674724 -0.00912372 0.02216698
0.035405707 0.034236267 -0.02978668 0.042951357 -0.049381357 0.023373846 -0.072717085 0.033664767
0.037987143 0.03048193 -0.032979295 0.0013284422 -0.017468952 -0.029142942 0.043715123 0.054924116
0.06979476 0.03891684 5.4486423e-05 -0.01638017 -0.042500574 0.060711864 -0.016346985 -0.04226875
0.0046686544 0.025432093 -0.044445157 -0.0649123 0.038491443 0.042732317 -0.01946783 -0.04222927
0.06641925 0.0111190425 0.02084308 0.064700045 0.071068734 -0.021056324 0.027572915 0.022991754
0.009187916 -0.028746273 0.0021889647 0.034412667 -0.045649186 -0.0045840237 0.018381858 -0.042712875
0.040429484 0.027007075 -0.020713221 -0.0040075034 0.010466637 0.03506175 -0.017463718 -0.036377393

net.4.bias f4 [200]
00000000: 8e5c 2cbc afe6 9dbd a9c2 8ebd 91e7 a03b
00000010: e8e1 fbbc 7602 f1bb c0b2 8abd 9048 453d
00000020: fb65 293d 34c4 bd3c 799c 913d e2ec 08bd
00000030: 4eba a2bc 8b6b 09bd 5ee2 f43c 34ff b63c
00000040: 0acd efbc 622d cd3c 5b22 20bd becb 5cbd
00000050: 49ab 483c b5dd a73b 72c4 6c3d ce35 dd3b
00000060: 6fdb 04bb 4fe6 1c3d 5865 343c 0c05 693d
00000070: 9028 7d3c 5dfe 863d 3323 95bc e284 eebc
00000080: 2d0f 263d 551c 29bd 3cea f7bc fce9 09bc
00000090: 97c2 393d 7fce 55bb df41 833d dde3 7ebd
000000a0: 58d5 fb3b 8f87 7cbd 0516 a03c 822c 01bd
000000b0: d6ea 3b3d 7af5 8bbc 21d7 03b9 16bc 50bd
000000c0: 7bdd 943d 7927 403c 55f3 8fbd e40b 633d
000000d0: 24a5 61bd 1446 a53d 28eb 163d b9de b6bc
000000e0: 2b8f a9bc 86cf b63c c6ed 8b3d f0f0 84bd
000000f0: 1edf 54bd c422 92bd 6490 4ebb f95f e3bc
00000100: 1e51 f13c 8287 023d 920a efbc 305a 2e3c
00000110: 582f 1a3b 3277 8e3d 82b2 8e3d a98c 08bc
00000120: 5420 83bb e274 653d 0f62 20bc 1a7d 373d
00000130: 5d42 683c d1f1 9b3d f45e 71bd ed91 183d
00000140: d467 4c3d c1b9 083d 28d8 16bd 7a85 3c3d
00000150: fcf2 a03c 3187 2fbd 055c 5b3d 58f4 70bc
00000160: 0e3c dd3c 7698 0dbd 00b6 c53b d481 61bd
00000170: 0e46 92bd ea01 29bd 65b9 353d 1412 a03d
00000180: b0e8 97ba d09e 7e3d 074f 4c3d a3d9 bb3c
00000190: 4480 efbc 79b0 4fbd 01b1 52bd d781 1abd
000001a0: 782c 5c3d cda2 fe3c c1ac 9dbd db9e 2cbd
000001b0: 9744 853d cdde 6ebd de48 40bd 1ff4 743d
000001c0: feb4 cc3c 1665 243d b6c7 963d add5 7e3b
000001d0: 4f6f 583d d046 573d 2c58 053d 5dcb 99bd
000001e0: dc2b 5f3d cee7 85bd 7183 923c d77c 8abd
000001f0: 114b f43c 2061 b93c 7f5e 77bc 1d88 93bb
00000200: dade c739 a322 84bc e4c2 74bc 5c44 81bd
00000210: 07e3 7cbd 1b4b 983d 2859 71bd 93c2 a43b
00000220: dc6f 4abc 42ae 8dbd d4a5 41bc d3ec 90bd
00000230: 5d45 72ba e4ba 15ba 32fa b03c 8602 92ba
00000240: 23af 2a3c 411d 1abd d56d a2bd d7d1 853d
00000250: f16d 0c3d 8dcf d53b 7e77 a23d 9ffb 593d
00000260: 7750 af3c cc9f 813d 01c6 c23c 208b 1e3d
00000270: 4a67 473d bf22 0cbc 3b28 12bd 55bf 4f3c
00000280: 7fd2 153c c1f8 71bd 8c74 3fbc 7029 8bbd
00000290: 9e06 1dbc a1b2 633d 5179 3d3d d12e a03c
000002a0: 63ab 38bb 5bd0 12bd 87a1 93bd d70e 623d
000002b0: 01f3 803d 635e c13c 016f 45bd 1165 ca3c
000002c0: 48b0 863b 7e79 47bc 2405 1ebd e48f 5dbd
000002d0: 992d 423d 5942 6e3d a049 67bd 3e8f 873d
000002e0: d0cc cc3b 2cc6 84bd 2efe e4b8 49cf 1e3d
000002f0: 1762 37bd 8478 70bd 0c64 36bc 6c24 00bd
00000300: fbe8 3bbd 6d16 873c fa37 66bd 75fd 7d3d
00000310: c6d9 59bd 7de1 933d f27f 533d 864e ad3b
-0.010520114 -0.07710015 -0.06970722 0.0049104174 -0.030747369 -0.0073550297 -0.06772375 0.048164904
0.04135702 0.023164846 0.07109923 -0.033429034 -0.019864228 -0.033549827 0.029893097 0.022338487
-0.029272575 0.025046054 -0.039095264 -0.05390524 0.012247869 0.005122865 0.057804532 0.006750799
-0.0020272394 0.038305577 0.01101049 0.05688958 0.015451565 0.06591485 -0.01820526 -0.029116098
0.040541817 -0.041286785 -0.030263059 -0.008417603 0.04535159 -0.0032624302 0.06409048 -0.062229026
0.0076853447 -0.061652716 0.01954175 -0.031536587 0.045878254 -0.017084826 -0.00012573275 -0.050960623
0.072688065 0.011728161 -0.07028834 0.05543126 -0.05508913 0.08070007 0.036845356 -0.022323
-0.02069815 0.022315752 0.06832461 -0.06491268 -0.051970594 -0.07135537 -0.003151917 -0.027755724
0.029457625 0.03186751 -0.029179845 0.01064162 0.0023526754 0.069563285 0.069676414 -0.008334317
-0.0040016565 0.05601967 -0.009789004 0.04479704 0.0141759785 0.07614482 -0.058928445 0.03724854
0.049903706 0.033380274 -0.036827236 0.04602573 0.019647114 -0.042853538 0.053554554 -0.014706694
0.027006175 -0.034569226 0.006033659 -0.055055454 -0.07142268 -0.04126159 0.04436626 0.07815948
-0.0011589732 0.062163174 0.049880054 0.022930926 -0.029235967 -0.050705407 -0.051438335 -0.03772148
0.053753346 0.031083489 -0.07698966 -0.042143684 0.06507223 -0.058317948 -0.04694449 0.059803125
0.024988648 0.040135466 0.073623106 0.0038884685 0.052840527 0.052557766 0.03255479 -0.075094916
0.054485187 -0.06538354 0.017884942 -0.067620926 0.02982095 0.02262932 -0.015098213 -0.00450231
0.00038122275 -0.016129797 -0.014939044 -0.06311867 -0.061739948 0.074362 -0.058922917 0.005028078
-0.012355771 -0.06918003 -0.011819322 -0.07076421 -0.00092419033 -0.0005711748 0.021603677 -0.0011139668
0.010417732 -0.037625555 -0.07931105 0.065341644 0.034284536 0.006524986 0.079329476 0.05321848
0.021400673 0.06329307 0.023776056 0.0387069 0.04868249 -0.008553206 -0.035682898 0.012679894
0.009144424 -0.05907512 -0.011685502 -0.06795013 -0.009584097 0.055590276 0.046258274 0.019553574
-0.0028178326 -0.035843235 -0.07208543 0.055189934 0.06296349 0.023604577 -0.048201565 0.024706395
0.00411037 -0.012174962 -0.03857912 -0.054092303 0.047406767 0.058168743 -0.0564667 0.06619118
0.0062500015 -0.06483111 -0.00010919232 0.0387719 -0.04477128 -0.058708683 -0.0111322515 -0.031284735
-0.045876484 0.016490186 -0.056205727 0.062009294 -0.0531862 0.07220743 0.05163569 0.0052889017

net.6.weight f4 [200, 200]
00000000: dfca 6bbd 8784 35bd de30 373c da47 93bd
00000010: fd2b 1b3d e90a 83bd 7edd 2abd 73e4 33bd
00000020: 28df 28bd 14c0 713d 5441 55bd 6698 e63b
00000030: e14a 933d f2a7 12bd e6e9 683c f326 42bd
00000040: 6e7d 06bd cce6 20bd 1d17 e13b 34bd 4b3d
00000050: 19c5 66bd ec57 3cbd 8ba6 61bd 6062 0fbb
00000060: 8659 1d3c 16ce 9f3c 3791 bebc 7dcc dfbc
00000070: 3c23 983c 0ef8 77bd 8fdf 903d 326f c83c
00000080: c412 73bd 79d5 a3bc ac7f 0cbd 18f9 0b3d
00000090: 2b90 8dbd 5082 563d 1905 313d 72cb 27bd
000000a0: e3e7 cfbc 7245 fdbc 2f58 3abd be04 8abd
000000b0: 5363 a83c 3291 e53c ee64 83bd 94b8 77bd
000000c0: f39d d3ba 4482 f5bb ef36 c6bc e829 983d
000000d0: 0ab7 35bd 21ad ccbc 6bd5 a43a 4ddb 00bd
000000e0: 4ab2 353c 2029 9c3a 8a93 553d 3a3d 94bc
000000f0: c56d 18bd b96d 77bd 2a30 6abd 562c a7bc
00000100: f3fc f03c 0a8b e93b 7d6f a5bb 4ca0 173d
00000110: 1d78 fa3c f103 04bd e993 233b ff25 913c
00000120: f58f 3bbd ae37 61bc b043 543c 1800 b8bc
00000130: 3dee a53c 8fd0 a6bc b94b 6b3d 9c07 7dbd
00000140: 748e 8f3d 5e49 b1ba a469 d33c 9857 b3bc
00000150: c3bf 833d 2b0b 8bbc d3fd 3abd 42cd 5a3d
00000160: ab48 59bc 37c0 52bc fdd6 3b3d 3c9b 943c
00000170: ca8b 5a3d 5586 083c ec38 673d 28e3 02bd
00000180: f4f1 263c f89d 26bd 3b7f 713d 4996 83bd
00000190: db89 71bd 4433 8e3b a4af 78bd fedb 24bc
000001a0: cf2d 0dbd d2ea 773d 318b 4abd 5dda 073d
000001b0: 60c3 e03b 16d1 19bd 82b2 973d f6cd ca3c
000001c0: 5271 5f3d 44f3 62bd ff6f 69bd b811 423d
000001d0: 9ac7 9cbc 3a20 6ebd bab1 053d 6696 7e3d
000001e0: aa57 a4bb d719 3c3d bb7c 93b8 024a 1cbc
000001f0: dfcf a4bc 6878 3dbd 90e2 86bd 0ad3 8b3b
00000200: b4ca 6ebd 01aa bd3b 3984 6abc 12e6 3ebd
00000210: b422 56bc 09f5 6bbd c216 34bd 8e3d 393d
00000220: d56a 03bb 7383 903b 615c f4ba cb8f ff3b
00000230: a81a 853d a863 6d3d 87c1 4c3d 7ac3 7a3d
00000240: ce69 b53c 62bd 903c a291 063c 719c febc
00000250: 6792 5bbb baec 9c3b d21c 58bd e21c cfbc
00000260: b0c7 1b3d 88e7 fa3b 8ca1 2c3d 940a 5dbc
00000270: 8d7b 2f3d bc7e bbbc 0a7a 1abd f8fb 52bd
00000280: 3f98 afbb 5ac2 5cbd 666d 5a3d c3f4 50bd
00000290: dfa8 40bd f149 c9bb d882 373c a775 08bd
000002a0: 395e 34bd 9a6f 5dbd a02e 243d 342d 6ebd
000002b0: 4870 a5bb 0315 173d b0d1 e7bc 953e 63bd
000002c0: 6093 fbbc 1f37 513c ed50 30bd 233d 413c
000002d0: 8e29 4a3d dd3b de3c 6fdb f7bb 9b08 463d
000002e0: 1867 82bc 5e95 06bd 413d 793b 6581 e03c
000002f0: 9a41 8d3c 1be7 65bd 4bd9 2fbd 4564 483d
00000300: 0f61 e2bc e50d 453d a3d5 69bd 86ec 873d
00000310: 29c6 67bc d90c 32bd c0aa 973d 196a 553d
00000320: adf0 48bd 3832 203d 3592 913c a271 7fbc
00000330: 13b4 1fbd 0ac2 a739 9744 da3b 55d6 a13c
00000340: 26a8 a93c 4867 16bd c242 813c 3bdc 73bd
00000350: 12de 993c fcfe 903d f39f bbbc 51ee 583d
00000360: f6bd 8a3c 76dd d93c e84a 2a3d ad66 173d
00000370: eb35 473d c09c ccbc c5e2 523c 5476 55bd
00000380: 2357 ac3c 4ae2 7abd cad7 463d bbbf 073d
00000390: cedb 03bd 3040 713d a866 593c a7c0 28bd
000003a0: f1e8 7e3d 874e da3c 9c2b 63bd c44b 473d
000003b0: e32b fbbb 80fa eb3c 2dac 03bc b6dd 303b
000003c0: 876c 89bb 18bf c93c d5ed b3bc 8c2f 313d
000003d0: 5d11 47bd e733 b13c d6ea a93c 7153 703d
000003e0: ea97 763d c6cd 023d d3ba 72bd 74c2 4f3d
000003f0: 07d4 5e3d a8b8 6abd 1a52 11bc a283 5fbd
-0.05756652 -0.04431584 0.011181084 -0.07191439 0.037883747 -0.06398565 -0.041715138 -0.043919038
-0.041228443 0.05902107 -0.052064255 0.0070372103 0.071920164 -0.035804696 0.014215922 -0.047400426
-0.032834463 -0.039282605 0.0068692104 0.049740985 -0.05634031 -0.045982286 -0.05509047 -0.0021878704
0.009603864 0.01950745 -0.023262603 -0.027319187 0.018571489 -0.060539298 0.070738904 0.024467085
-0.05934407 -0.019999253 -0.034301445 0.0341731 -0.069122635 0.05237037 0.043217752 -0.040965505
-0.025379127 -0.030916903 -0.045494255 -0.06739186 0.020555174 0.028023336 -0.06415735 -0.06047876
-0.0016145095 -0.0074923355 -0.024196116 0.07429868 -0.044364013 -0.024984898 0.001257581 -0.03145914
0.011089871 0.0011914112 0.052142657 -0.018095601 -0.03721406 -0.060407374 -0.05717484 -0.020406883
0.02941749 0.0071271705 -0.005048691 0.037018105 0.030574853 -0.03223032 0.0024959987 0.017718313
-0.045791585 -0.013746185 0.012955591 -0.022460982 0.020255202 -0.02036312 0.05744526 -0.061774835
0.07009593 -0.0013525893 0.02580721 -0.021892354 0.0643306 -0.016973099 -0.045652222 0.053418405
-0.013261954 -0.01286321 0.045859326 0.018140428 0.05335597 0.0083328085 0.05645077 -0.031954914
0.010189522 -0.040677994 0.058959227 -0.06425149 -0.05896936 0.0043396074 -0.06071438 -0.010062216
-0.034467515 0.060526676 -0.04944915 0.03316723 0.006859228 -0.037552916 0.074070945 0.024756413
0.05455143 -0.055407777 -0.056991573 0.04738018 -0.019138146 -0.058136202 0.032640196 0.06215515
-0.005015333 0.04592308 -7.032739e-05 -0.009539129 -0.020118652 -0.046257406 -0.06586182 0.004267101
-0.05829878 0.0057880883 -0.014313751 -0.04660613 -0.013069797 -0.05760673 -0.043967016 0.04522472
-0.002005269 0.004410201 -0.0018643254 0.007799124 0.06499225 0.057956368 0.04998925 0.061221577
0.022145178 0.01766843 0.0082134325 -0.031080456 -0.003350401 0.004788962 -0.05276186 -0.025282327
0.038032234 0.007656995 0.04214625 -0.013491292 0.042842437 -0.02288758 -0.03771404 -0.051509827
-0.0053587253 -0.053896286 0.053326987 -0.051014673 -0.047036048 -0.0061428477 0.011200629 -0.033315327
-0.04403517 -0.05406151 0.040083528 -0.058148578 -0.0050487854 0.036885273 -0.028298229 -0.055479605
-0.030709922 0.01276949 -0.043045927 0.011794361 0.049356036 0.027128154 -0.0075640003 0.04834805
-0.0159183 -0.03285729 0.0038030895 0.02740545 0.017243195 -0.056128602 -0.042931836 0.04892375
-0.027634172 0.048108954 -0.057088505 0.0663691 -0.014146366 -0.043469284 0.07405615 0.052103136
-0.04905765 0.039110392 0.017769912 -0.015591057 -0.03899009 0.00031997293 0.0066610086 0.019755522
0.020710062 -0.03671959 0.015778903 -0.0595362 0.01878265 0.070798844 -0.022903418 0.05296165
0.016936284 0.026594859 0.041575342 0.036963154 0.048635405 -0.024977088 0.012871449 -0.0521148
0.021037644 -0.061250962 0.048545636 0.033141833 -0.032192044 0.058899105 0.013269104 -0.041199353
0.06223387 0.026648773 -0.05546151 0.04865624 -0.007665144 0.028805971 -0.008036655 0.0026987619
-0.0041938457 0.024627253 -0.021963993 0.043258235 -0.048600543 0.021631194 0.020741861 0.058673326
0.06020347 0.031934522 -0.0592602 0.050722554 0.054401424 -0.05730501 -0.008869672 -0.054568894

net.6.bias f4 [200]
00000000: bffc d63c 1b2c 42bd 258c d13b ca44 943d
00000010: b356 94bd e714 9abd 478c e83c 23a0 5d3d
00000020: 7004 a23d 73df 853d 1777 1d3d 1f86 423d
00000030: 95df 063d 6775 d13c 4369 8e3d 9879 45bc
00000040: a2c5 9e3c ea2b 15bd 09b3 2dbd 58c2 99bd
00000050: fe7d 2b3d 5e8d 953c 7afc 16bd 5b4e 8ebd
00000060: d16d 763b 9c95 9d3d 2628 81bd 7579 123d
00000070: 1c6a 1ebc 8153 01bd b178 07bd 237a 85bd
00000080: 0523 213d b842 b8bb 8fa2 983c 17a2 983d
00000090: 28c5 6cbd 61ec 82bd 125f 5cba 652c 713c
000000a0: e15c 79bb 37e4 50bd b041 1ebd cb30 4e3c
000000b0: ce48 583d 5729 37bd eff8 9b3d c1d2 c23c
000000c0: 7cc9 553d 3ce0 373c 8ea3 833d 2dbe 963c
000000d0: f83f 4bbd 66dd 063d 4ec6 363a 1561 67bd
000000e0: 9b9f 1abd fb86 f7bc 8d23 eb3c afcf 78bd
000000f0: 4e43 f6bc 158d 3dbd fda4 903d eb72 95bd
00000100: 4bc9 59bd 58da 5abb 7433 babc 5ba8 e33c
00000110: eeda 65bc af1c 233d 41dd a03c 6e38 7dbc
00000120: 76ca 24bc ad50 1fbd a08d 99bc 3456 1a3d
00000130: e31f 803d b4d0 87bd 492c 6ebd 07bd 6e3d
00000140: 7007 4dbc f01f 51bd 9b86 8dbd 9f8d 353d
00000150: 7ce4 65bc a099 7a3d 0508 a13c a523 d8ba
00000160: 19bd 803d c42a 103d 3986 893c 515b 71bd
00000170: 50fb 103c f08f ccbc 35e0 253d 2a96 453d
00000180: b4cf e93c 9dad 4bbd 4086 d2bc 2aff fbbc
00000190: fb9e 43bc f017 223d 818d 2f3d ea06 13bd
000001a0: 784f 22bd c1a9 96bc 2072 f73b fcfa 513d
000001b0: c113 9cbc 160a 8bbd 3571 2d3d 9442 59bc
000001c0: 8439 813d 9d67 89bd 6c4d e0bb 758b 08bd
000001d0: 5a51 4c3d 7323 083d 9611 843d 8ef5 d43c
000001e0: 2e4a e33b b14f 0d3d 2abd 55bd 18b0 a03d
000001f0: 034d 9cbd 4aca 603d d102 d23c 8837 273a
00000200: 3d0b c63c f651 7d3d 0045 d33c 4c19 6e3d
00000210: 54c7 1d3d d907 6bbd 8f1a be3c 3463 90bd
00000220: b8d6 52bb 88b6 e1bc db38 9abd 0a7c 03bd
00000230: 44b8 6b3d 08bb 65bd 8bb1 66bd 303f a23c
00000240: a0fb a9bb 6906 b6bc eaac 753b ff49 6e3b
00000250: 8cd6 4abd ed24 87bd 72b4 5e3d 6d85 84bd
00000260: ee9b 22bd 9ea8 7cbd f02f 3f3d 3cff 593d
00000270: c1c1 00bd 2f88 5ebd 6d6a 4fbd 9798 7f3d
00000280: 030a 46bd 4a89 923d 887d 13bd 66ff 7c3d
00000290: 89b0 77bd 1590 073d 2202 5bbd 5664 78bd
000002a0: b558 433d cf01 793d 58ee 2abd b993 91bd
000002b0: 5b98 2bbc f6b4 d4bc e630 323c 01a2 29bc
000002c0: 990c 8cbc 5748 163c 1c86 093d 546c 26bc
000002d0: ca54 62bd 4692 7ebd daf0 693d e91d 7bbd
000002e0: b968 163d 9171 d83b 5e63 3ebc 0b40 b13c
000002f0: b610 8cbd 7cee 873d fe59 96bd 9c6d 11bc
00000300: 37e0 fd3c 978a 04bd 83c8 423d fef4 edbc
00000310: 4c31 4cbd 2449 eabc 97f3 2e3a 5768 8f3d
0.026243566 -0.047405344 0.0063948804 0.07239683 -0.07243099 -0.07523518 0.028387202 0.054107796
0.07911003 0.0653676 0.03844365 0.04749119 0.03292807 0.025568677 0.06953671 -0.012052916
0.019381348 -0.036418833 -0.04240707 -0.07507771 0.041868202 0.018255886 -0.036861874 -0.06948539
0.0037602077 0.07694551 -0.06306486 0.03576036 -0.009668853 -0.031573776 -0.033074085 -0.06517436
0.039340038 -0.005623188 0.018632201 0.07452791 -0.05780521 -0.06392742 -0.00084065006 0.014720057
-0.0038049745 -0.050998893 -0.038636863 0.012584875 0.052803807 -0.04471716 0.0761584 0.023782136
0.052194104 0.011222895 0.0642768 0.01840123 -0.049621552 0.032925986 0.0006972299 -0.05648907
-0.037749868 -0.03021573 0.028703475 -0.060744938 -0.03006139 -0.046277124 0.07062719 -0.072973095
-0.053170484 -0.0033394303 -0.022729613 0.02779024 -0.014029248 0.039822277 0.019636752 -0.015455348
-0.010058036 -0.038895298 -0.01874429 0.037679866 0.06256082 -0.06631604 -0.058147702 0.05828574
-0.01251398 -0.05105585 -0.069104396 0.044324514 -0.014031526 0.061181664 0.019657144 -0.0016490115
0.062860675 0.035197034 0.016787635 -0.058924977 0.00884898 -0.024970978 0.040497024 0.04823891
0.028541423 -0.049726117 -0.025698781 -0.03076132 -0.011939759 0.03957361 0.042859558 -0.035895266
-0.03962657 -0.018391492 0.0075514466 0.051264748 -0.019052388 -0.06789033 0.04234429 -0.013260502
0.06309798 -0.06709216 -0.006845167 -0.03333612 0.04988227 0.033236932 0.06448667 0.025995996
0.006936333 0.034499828 -0.052182354 0.07846087 -0.07631876 0.054880418 0.025636109 0.0006378819
0.02417528 0.061845742 0.025789738 0.058129594 0.038520172 -0.05738053 0.023206023 -0.070501715
-0.003217144 -0.027552858 -0.075303756 -0.032100715 0.057548776 -0.05608657 -0.056321662 0.01980552
-0.0051874667 -0.022219853 0.0037487098 0.0036360023 -0.049521014 -0.0659884 0.054371305 -0.064707614
-0.039699487 -0.061684243 0.046676576 0.053221926 -0.031434778 -0.054329094 -0.050638605 0.06240138
-0.04834939 0.07155092 -0.036008388 0.061767004 -0.06047109 0.03309639 -0.05346883 -0.060642563
0.04769202 0.06079274 -0.04173121 -0.07108254 -0.010473336 -0.025965195 0.010875916 -0.010353566
-0.01709585 0.009172521 0.033575162 -0.010157663 -0.055256642 -0.062151216 0.05711446 -0.06130782
0.036720965 0.006605335 -0.011620371 0.021636983 -0.06839125 0.06637284 -0.073413834 -0.008876231
0.030990703 -0.032358732 0.047554504 -0.029047485 -0.0498517 -0.02859933 0.0006673871 0.07002323
