mlartifacts/820809966211850360/ca876bdbd87b4ebfa42a8c3972205c77/artifacts/model/data/model.pth (torch, 981246 bytes, 15 tensors)

weight f4 [200, 4]
000000 5e 9d c6 3e 22 9c d0 3e 1e df e2 bd e9 9c ef 3e
       0.38791937 0.4074412 -0.110777125 0.467994
000010 13 89 d1 bd 76 2a c1 3d dc 6b 72 be 9c dc 9b 3e
       -0.10231223 0.09431927 -0.23673958 0.3044175
000020 e5 14 dd 3e a3 a6 b9 be 55 0c dc 3e 13 f5 aa 3d
       0.43180004 -0.36259946 0.4297816 0.083475254
000030 fc 8e bd 3e a6 d5 93 3d 35 5b 72 3e d9 64 86 bd
       0.3702315 0.072184846 0.23667605 -0.06562204
000040 fd c8 c4 3e 3f 02 8b 3d 0d ca 68 be 31 f7 fa 3d
       0.38434592 0.06787538 -0.22733326 0.12254179
000050 35 ba 68 be c0 d1 5e bd df 2e 52 be 08 a2 ad 3e
       -0.22727282 -0.054399252 -0.20525692 0.33912683
000060 ce 6f c4 be 85 56 69 be cf b7 12 be 61 d9 9c be
       -0.3836655 -0.22786911 -0.1432793 -0.30634597
000070 e0 4b 33 3d 23 e2 f9 be 49 f5 e4 3e 38 42 dd be
       0.043773532 -0.4880534 0.44718388 -0.43214583
000080 38 82 cb 3e f8 61 8e 3d a8 c3 19 be 92 fb a6 3e
       0.39747787 0.0695228 -0.15016043 0.32613808
000090 65 f1 9d 3d 25 f9 cf 3e 4d 5e 5c 3d 1c 8b 1a be
       0.07712058 0.4061977 0.05380087 -0.15092129
0000a0 ba 7c 0c 3e 56 00 03 be 77 73 4e 3e 9d 88 e8 3e
       0.13719454 -0.12793097 0.20161234 0.45416728
0000b0 54 8c 94 3e 8b bd 59 be cb 61 90 3e e9 36 c6 3d
       0.29013312 -0.21263711 0.2819961 0.09678442
0000c0 dd 72 84 3e df 39 9c be 5d 7b fc be 01 c6 43 be
       0.25868884 -0.30512902 -0.4931287 -0.19118501
0000d0 de 4d c3 be 37 62 d1 3e 88 be 14 3e e7 35 5e 3e
       -0.38145345 0.40895244 0.14525807 0.2170025
0000e0 39 ea 28 3e 71 f2 d5 ba 1f 17 c4 3e 8a f8 b4 be
       0.16495599 -0.0016322864 0.3829889 -0.3534587
0000f0 0d 33 eb 3c 11 c8 ae be e1 46 1c 3e bb 48 33 be
       0.028710866 -0.34137014 0.15261413 -0.17508213
000100 10 c5 22 3e 73 6f c7 bd 02 df d0 3e 50 55 96 be
       0.15895486 -0.09738054 0.4079514 -0.29361963
000110 16 7d 96 be 20 c6 95 be 1b 65 e3 3e 15 ac 30 3e
       -0.29392308 -0.2925272 0.44413075 0.17253144
000120 f4 ef f5 3e c7 2c d1 be 79 d6 ff be f2 39 c9 be
       0.48034632 -0.40854475 -0.49968317 -0.3930202
000130 20 2b ab be c9 10 4e 3e 36 e7 37 3e f3 ca da 3e
       -0.3343134 0.2012359 0.17959294 0.42732963
000140 c1 05 87 be 53 c2 ac be d8 6d 86 3e 41 94 5a be
       -0.26371577 -0.33742008 0.2625568 -0.21345617
000150 8a ac 9c 3e 18 e4 e9 bd c6 47 90 3e 20 fa c4 be
       0.30600387 -0.114204586 0.2817976 -0.3847208
000160 89 e5 81 be a9 92 19 3e 2f 51 da 3d 62 11 12 be
       -0.25370434 0.14997353 0.10660016 -0.14264444
000170 fa 4e 94 3e 12 65 aa 3e 1f 3a b6 be 41 03 8c be
       0.28966504 0.33280236 -0.35591218 -0.27346233
000180 f9 9f e8 3e 9c 18 2f be b3 ce 32 be f2 d9 fb be
       0.4543455 -0.17099231 -0.17461662 -0.49189717
000190 ec 64 92 be a5 99 ec 3d 74 19 72 bd 66 16 be be
       -0.28592622 0.11552743 -0.059106305 -0.37126464
0001a0 e4 6e 36 3c 85 76 b2 be 04 b4 d5 be 10 0d 8e be
       0.011134837 -0.34856048 -0.41738904 -0.2774434
0001b0 f3 ed e2 be dc b0 9f be 46 e3 fb 3e 12 8c b4 3d
       -0.44322166 -0.3118962 0.49196833 0.08815779
0001c0 bc 5f 1d 3e af 9b eb be 87 93 aa be cf be 2a be
       0.15368551 -0.46017215 -0.3331568 -0.1667435
0001d0 d8 8d a7 3d 73 b6 e2 be 06 24 59 be 0d 18 9b be
       0.081813514 -0.44279823 -0.21205148 -0.30291787
0001e0 b0 8c 2e b9 85 a1 32 be 20 55 38 bd 0a d3 b4 be
       -0.00016646343 -0.17444427 -0.045003057 -0.3531726
0001f0 b0 34 b4 be 82 81 98 be 26 b2 29 be b0 7c ca be
       -0.35196447 -0.29786307 -0.16571864 -0.39548254
000200 39 69 d7 3e 47 36 bd bd 11 86 d8 3e 24 7d 27 3e
       0.42072466 -0.09238868 0.42289785 0.16356331
000210 d7 e8 d8 be 63 29 b1 3e 35 7e 0b be 1f 94 4d be
       -0.42365143 0.34601888 -0.13622363 -0.20076035
000220 b2 ba d6 be 38 d0 fc be bf 44 0f 3e d9 97 e7 bd
       -0.41939312 -0.49377608 0.13991068 -0.113082595
000230 a9 98 47 3e 4f ea ce be 39 91 ba 3e 82 76 b9 be
       0.19491829 -0.40413138 0.3643892 -0.36223227
000240 6e bc b2 bd 95 8d de 3d 51 19 82 3e 9a da ca 3e
       -0.08727346 0.108668484 0.2540994 0.39619905
000250 72 68 e9 3e 09 76 c7 be 46 4c f2 3d f6 d2 67 be
       0.45587498 -0.3895724 0.11830954 -0.22639069
000260 68 a3 8c bd 49 3d ba be 74 15 e3 3e 86 93 c1 be
       -0.06867105 -0.36374882 0.44352305 -0.37807864
000270 8a 96 84 3e c5 ec 3c 3e 3e 50 1c 3e 9b 6c 8e be
       0.25896102 0.18449695 0.15264985 -0.27817234
000280 3f fe e4 3e 18 9b ea 3d 23 d5 72 3d 0e 66 e2 be
       0.44725224 0.11455363 0.059285294 -0.44218487
000290 b4 e4 50 3e 49 51 a4 bd 05 61 65 be 71 66 db 3e
       0.20399743 -0.080233164 -0.22400291 0.42851594
0002a0 e3 6a dd 3d 04 46 92 be 6b e0 7c be cc f4 03 bd
       0.10811403 -0.28569043 -0.24694984 -0.03221588
0002b0 e6 71 8c 3e 8a ef 07 be 61 a6 8f be 84 82 38 be
       0.27430648 -0.1327497 -0.28056625 -0.18018538
0002c0 3f 5f c0 be 30 b8 33 3e d3 3a c3 3e b9 00 fe be
       -0.37572667 0.1755073 0.38130817 -0.49609926
0002d0 89 ab e2 3d b5 56 80 3e fa 3e c9 3d ff a5 47 be
       0.11067874 0.25066152 0.09826465 -0.19496916
0002e0 eb 0c 85 3e a7 17 83 3e f1 f9 42 3e 2d 54 9e bd
       0.25986418 0.25603983 0.19040658 -0.07730899
0002f0 61 47 08 be a8 c0 46 3d eb d7 aa bd 54 1d 1b be
       -0.13308479 0.048523575 -0.08341964 -0.15147907
000300 eb 93 a8 3e 85 b9 d7 3e 47 41 2a bd 3d 56 d4 bd
       0.32925352 0.42133728 -0.04156616 -0.10368011
000310 42 fe ae 3b 51 00 f9 bc e1 7d f4 3d 83 93 1a 3e
       0.0053403685 -0.030395659 0.11938072 0.15095334
000320 c6 22 e5 be 67 14 36 be a1 4b d4 3e 27 5c 4e 3e
       -0.44753093 -0.1778122 0.4146395 0.20152341
000330 88 5b f6 bc 06 78 9d be f3 09 98 be ce 86 f0 be
       -0.030072942 -0.30755633 -0.2969509 -0.46977848
000340 29 6d 2d be 46 1f 32 3e 3d 8b 9f 3e 4b 29 76 3e
       -0.16936173 0.17394742 0.31160918 0.2403919
000350 9d 5f e0 be bb 57 97 be 0e 87 aa bd 00 8f fc 3e
       -0.43822947 -0.2955912 -0.08326541 0.4932785
000360 80 bc 88 3d 2a 6d fc bd ce b8 4d 3e f4 1c 4c be
       0.066765785 -0.12325509 0.20090029 -0.1993292
000370 56 75 a0 be ba 6d b6 3e b9 a8 60 be fb 18 b7 bd
       -0.3133952 0.3563059 -0.21939363 -0.089403115
000380 4e 48 fa be bf b5 ad 3e f2 9e bf 3e 5b c7 41 3e
       -0.4888329 0.33927724 0.37425953 0.18923704
000390 04 c4 ad be 6d b8 f9 be 05 93 d1 be a8 1c c1 3e
       -0.3393861 -0.48773518 -0.4093248 0.37717175
0003a0 17 6a 7d 3e fb 70 d6 3e b1 1c 87 3e da 45 12 3e
       0.24747501 0.41883072 0.26389077 0.14284459
0003b0 d1 ab 8f bb 91 a0 c7 be a6 57 d4 be 4c 0c f5 be
       -0.004384496 -0.3898969 -0.4147312 -0.47860944
0003c0 51 5f 53 3e 8d f0 7d be f4 c9 ca bd 59 45 8e be
       0.20641829 -0.24798794 -0.09901801 -0.27787283
0003d0 eb 61 b6 bd 4f 88 b5 be b1 4d a5 be 8a f5 29 3e
       -0.08905395 -0.35455558 -0.32285836 0.16597572
0003e0 0e 3a 0b be 1d 80 9a 3e 7d 8e 1b be 7d 46 bb be
       -0.13596365 0.30175868 -0.15191074 -0.36577216
0003f0 2c 39 bb bd cf 58 80 be 1d a3 10 be bd 28 00 bf
       -0.09141764 -0.25067756 -0.14124723 -0.5006216

bias f4 [200]
000000 4a b1 bc bd 7e d3 55 3e 96 ff e7 be 6f 18 96 3e
       -0.09213503 0.20881459 -0.45312184 0.29315516
000010 c5 3d 27 be 5f c8 c1 be b7 32 8d 3d b1 98 7a 3e
       -0.16332157 -0.37848184 0.06894439 0.2447231
000020 13 97 e3 3e a2 7a 98 be 79 d9 75 be a1 ae d2 3d
       0.44451198 -0.2978106 -0.2400874 0.10287214
000030 dd 3a 0a 3e b1 cc 4d 3e 64 b4 90 3e da 3c ed bd
       0.13499017 0.20097615 0.28262627 -0.11583872
000040 ac 2f 91 3e 49 a5 bf 3e e2 bb 04 be c4 78 bb 3e
       0.28356683 0.3743079 -0.12962297 0.36615574
000050 8a 4c 71 3e 9d 22 e4 3e 92 de 96 be 5b f4 81 be
       0.23564354 0.44557658 -0.29466683 -0.2538174
000060 2c 97 1d be dc 69 9d 3c 3e 7b 98 3e ce 77 96 be
       -0.15389699 0.019215517 0.29781526 -0.2938828
000070 46 91 7f 3e d5 3f 3a be 1e 9b 96 3e 2d 41 ba bc
       0.24957761 -0.18188412 0.2941522 -0.022736156
000080 f7 dc dd be ee 00 91 be f1 67 bb be 04 b3 81 3e
       -0.43332645 -0.28321022 -0.36602738 0.2533189
000090 4f a6 b0 be f1 cd 57 bd e9 24 d2 3d 15 ac 8b be
       -0.34501883 -0.052686635 0.10260946 -0.27279726
0000a0 3a e3 16 3e 10 43 fd be 66 93 ba be 59 17 ec be
       0.14735118 -0.49465227 -0.3644058 -0.46111563
0000b0 8d 23 2f be 64 90 46 be 05 25 a5 3d c1 15 c4 bd
       -0.17103405 -0.19391018 0.080637015 -0.09574462
0000c0 dd da 78 3e c6 4f ef 3e 22 4f 3e 3e 70 18 5a be
       0.2430224 0.4674055 0.18584874 -0.21298385
0000d0 65 e4 ec be 89 0d 42 3e b2 ca 82 be d9 01 87 3e
       -0.46268 0.18950476 -0.2554527 0.26368597
0000e0 1c 8c ae 3e ce 71 44 3e a9 e2 f7 3e 88 e0 ef 3e
       0.3409127 0.19184038 0.48415115 0.4685099
0000f0 33 d6 ee 3d 61 e5 bb be aa d0 e8 3e 36 a5 80 be
       0.11661949 -0.3669844 0.45471698 -0.25126046
000100 37 97 77 be 32 45 d9 3e ed 0e ca 3e d1 6a 12 3e
       -0.24178778 0.42435604 0.39464512 0.1429856
000110 17 25 0a 3d fd 0b da be 12 ba 39 bd 71 ec fe 3e
       0.033726778 -0.4258727 -0.045343466 0.49789765
000120 b7 2e 05 3e 1d b1 31 3d 6a ab d9 bd 5a 42 3a be
       0.13006102 0.0433818 -0.10628398 -0.18189374
000130 f8 90 9a 3e 6f 4c 27 3d 33 96 ac 3e 68 40 ac bd
       0.30188727 0.040844377 0.33708343 -0.08410722
000140 3d 41 63 3e 5b 7d 4a 3e 60 5b 97 3d ed 30 9b 3e
       0.22192855 0.19774382 0.07390475 0.30310765
000150 00 98 a2 3e d3 c2 f0 3e a6 34 c9 3e fd c4 f5 bd
       0.31756592 0.4702364 0.3929798 -0.12000463
000160 d3 34 dd be ff 1a cd 3d c0 f3 3f bc da 82 06 be
       -0.43204364 0.10014915 -0.011715829 -0.13135853
000170 9e 59 b6 bd 5e c2 96 3c 43 81 be 3e f3 39 24 3e
       -0.08903812 0.018403228 0.37207994 0.16037731
000180 f3 bb 3e be ca ce 59 be ba 05 e1 bd 44 75 4d be
       -0.18626384 -0.2127029 -0.109874204 -0.20064265
000190 3d 32 ea 3e 80 0e 81 3e ab fd eb 3e c4 fa 2d 3c
       0.45741454 0.25206375 0.4609197 0.010618869
0001a0 19 9f c3 3d 74 ed 2c 3e 8f 5f f4 be 17 32 4b 3d
       0.0955183 0.16887456 -0.47729155 0.049608316
0001b0 15 61 df bc 11 26 92 be fd 03 c4 be 9e f7 e7 3e
       -0.027267972 -0.28544667 -0.38284293 0.45306104
0001c0 e4 fa d1 3e 8e 6e 74 3e 1e 9b f9 3e fb 81 5d be
       0.41011727 0.23870298 0.48751158 -0.21631615
0001d0 68 ef be bd 51 42 4b 3e 79 5e b4 bd 2b 81 d1 bd
       -0.09323007 0.19849516 -0.08807082 -0.10229715
0001e0 6d 05 d7 be da e6 10 3e e2 e5 95 be 7c b3 bd 3c
       -0.41996327 0.14150563 -0.2927695 0.023156874
0001f0 30 00 fd 3e fa d8 25 be fe e1 27 be f0 c3 8f 3e
       0.49414206 -0.16196051 -0.16394803 0.28079176
000200 97 73 3f be e2 7b 09 bd fe 2d f2 3e 1e b0 5c be
       -0.18696438 -0.03356541 0.47300714 -0.21551558
000210 ef 96 ba be 3f 2c 93 be 17 11 17 be c0 eb 70 be
       -0.36443278 -0.28744695 -0.14752613 -0.23527431
000220 34 43 81 be a9 68 5d 3e b1 f7 ac 3d 20 c8 1a be
       -0.25246584 0.21621956 0.08445681 -0.15115404
000230 ae c0 c7 be 73 ef 2b be 9c 5e 6a be cc 0b 2d be
       -0.3901419 -0.16790561 -0.22887653 -0.16899031
000240 ea 09 e6 be 6a af e7 3d 9d 92 c0 be 41 ee c0 be
       -0.4492944 0.113127545 -0.37611857 -0.37681773
000250 85 fe d5 be f0 84 5a 3e b9 83 9d be 7f 7f 59 be
       -0.41795745 0.21339774 -0.3076456 -0.21240042
000260 7b b5 cb 3e 51 27 90 3e 6f 34 93 3e 24 48 f7 be
       0.39786896 0.28154996 0.2875094 -0.48297226
000270 c7 30 bb be b1 df 4a be 74 70 d6 3e a0 e9 2e 3d
       -0.36560652 -0.19811894 0.4188267 0.04270327
000280 bd d7 c5 be 4f de 89 3b 18 46 c9 be 72 84 e0 bd
       -0.38641158 0.0042074095 -0.3931129 -0.10962762
000290 c3 f8 0a be c6 7a e3 3e 6d f7 23 3e 83 8a b1 bd
       -0.13571458 0.44429606 0.16012354 -0.08668997
0002a0 a7 05 c6 3d d6 f7 1a be 7a 6a 57 3e af 43 52 3e
       0.09669047 -0.15133604 0.21036711 0.20533632
0002b0 0a f9 07 3e 28 3c 44 be 5b dd dd 3e 21 d3 9e bd
       0.13278595 -0.19163573 0.43332943 -0.077551134
0002c0 9a 16 52 be 61 b3 a7 3e 03 d9 d3 3e 7e 60 fe 3e
       -0.20516434 0.32754043 0.41376504 0.49682993
0002d0 6d 67 1f 3e ef 7c 3f be 3d 82 82 3e 9b 2c e3 3e
       0.15566798 -0.18700002 0.2548999 0.4436997
0002e0 00 cc fa be 57 cc 61 bd b6 85 b4 be 79 c6 c8 3d
       -0.48983765 -0.055126514 -0.35258263 0.09803481
0002f0 9e 86 5b 3e fa 53 d7 bd 17 bc 4c bd c4 73 69 3e
       0.21438071 -0.10514064 -0.049984064 0.22798067
000300 21 92 97 bd 68 ab d6 be 87 dd cd 3e e8 42 89 be
       -0.07400919 -0.41927648 0.40208074 -0.26808858
000310 83 67 82 bd 75 76 2f 3d 89 50 ed bc 21 d1 f4 be
       -0.063673995 0.04283758 -0.028969066 -0.47815803

weight f4 [200, 200]
000000 9c 9a 1f 3d 07 b4 e0 bc ce b0 29 bd f0 44 4b 3c
       0.038965806 -0.027429594 -0.04142838 0.012406573
000010 30 86 f9 bc b4 74 e7 bc c2 85 a7 bc aa 3f 03 bd
       -0.030459493 -0.02825389 -0.020449523 -0.032043137
000020 60 88 cb bc 98 2a 40 bc bf 2e 5b 3c 84 39 7f bd
       -0.024845302 -0.011728905 0.013377844 -0.06231071
000030 42 cc 1b bd 3b 87 92 3b 26 59 a1 3b 81 fa 09 3d
       -0.038036592 0.004471687 0.0049239574 0.033686165
000040 1b 50 60 bd e6 5d 87 3c 16 5d 39 3d 23 4d fa 3c
       -0.054763895 0.016524266 0.04525479 0.03055436
000050 95 4a 93 bd a4 b5 02 bd 8b 8f 66 bd f1 1d 1e bd
       -0.0719196 -0.031911507 -0.056289237 -0.038602773
000060 de 95 3e 3d 41 19 81 bb 41 39 0b 3d 85 c4 41 bd
       0.046529643 -0.003939778 0.03399015 -0.047306556
000070 70 a6 4f 3c 3e 8a 24 bd 14 3b e4 3c c4 06 de bc
       0.012673959 -0.0401709 0.027860202 -0.027102835
000080 72 e3 b4 bc 6a 39 66 bd 5e a2 bf bb df 4b 7d 3d
       -0.02208111 -0.056207098 -0.005848213 0.061839934
000090 16 6c f2 3c 75 f2 2d bd 0f cd 94 bb e3 88 16 bc
       0.029592555 -0.042467553 -0.0045410465 -0.00918791
0000a0 a6 40 6f bd 91 d2 7b 3d de ce 0f 3c 41 7d b2 3c
       -0.058411263 0.06148011 0.008777348 0.021788241
0000b0 e7 47 0a bd c2 5c c9 bc a9 19 fa 3b 37 81 00 3d
       -0.033759978 -0.024580363 0.0076324535 0.03137323
0000c0 77 96 b7 3c b6 24 31 bd 60 22 80 3d ae 84 47 bb
       0.022410614 -0.0432479 0.062565565 -0.0030444073
0000d0 42 6d 43 bd 92 97 25 bd 36 e8 84 3d e8 8b a0 3b
       -0.04771162 -0.04042775 0.06489603 0.0048994906
0000e0 72 07 75 bc 94 2b e0 bc 6b 9c cd bc 28 0a 65 bd
       -0.014955388 -0.02736453 -0.025099 -0.05591789
0000f0 98 7d 75 bd dd d1 42 3d 37 3d 86 3d 53 07 99 3d
       -0.05993423 0.047563422 0.065546446 0.074721
000100 bd aa 65 bd 63 63 07 3d a8 4a 1c bd 17 05 15 3d
       -0.05607103 0.033053767 -0.038157135 0.036381807
000110 aa 82 42 3d d9 c0 4d 3d ca 57 38 3d 46 81 45 3d
       0.047487892 0.050232742 0.045005597 0.048218988
000120 f7 cc e8 3a 1b 04 d5 3c 93 7c 9b bc 46 04 1e 3d
       0.001776128 0.026002934 -0.0189803 0.038578294
000130 b2 b0 92 bc 34 6a db bb 00 f2 89 bd a0 43 41 bc
       -0.01790652 -0.00669601 -0.06735611 -0.011795908
000140 ec ad 31 bd 99 2c aa bc 90 a6 51 bd 50 27 8f bd
       -0.043378755 -0.020773219 -0.051184237 -0.0698992
000150 b2 95 1d 3c b4 7e 4c 3d 08 8e 6f 3d 0a 09 18 3d
       0.00961821 0.04992552 0.05848506 0.037117995
000160 60 84 fb bc c1 f3 83 bd cc c9 fd 3c 7f c2 1e 3d
       -0.03070277 -0.06442977 0.030980013 0.038759705
000170 56 4d 88 bd 23 bc f5 3c bf ec 62 3d d6 86 8f ba
       -0.06655376 0.029996937 0.05540156 -0.0010950218
000180 92 2c 17 bd e2 19 84 3d bc b2 f5 3c ce 0b 2c 3d
       -0.03690774 0.06450249 0.029992454 0.042003445
000190 90 98 33 bd 34 d4 36 3d 91 ab 34 bd 2f f0 87 3d
       -0.043846667 0.044635966 -0.04410893 0.06637608
0001a0 d9 a4 cb bc 9a f4 3f 3d 61 03 c7 3c 8d d1 5a 3c
       -0.024858879 0.04686413 0.024293603 0.013355625
0001b0 db 43 bd bb e1 df 13 3d c3 20 c1 bc 0d 24 7d bd
       -0.0057759113 0.03610218 -0.023575192 -0.06180196
0001c0 8d d1 03 bd ec 31 4c 3d 51 05 5e bc 86 5b 99 3c
       -0.032182265 0.049852297 -0.013551072 0.0187204
0001d0 dc 14 ab bc 9d 4f 40 3d fe 08 46 3d fe 4e bc 3c
       -0.02088397 0.046950925 0.04834842 0.022986885
0001e0 9e 7f f5 bc 12 c2 82 bd 63 21 03 3c fb 48 10 bd
       -0.02996808 -0.06384672 0.0080035655 -0.03522585
0001f0 c2 b4 82 3d 99 08 98 bd e6 b1 1a 3d 4a 81 81 3d
       0.06382133 -0.07423515 0.037767313 0.06323488
000200 b2 a3 2d 3d 54 f3 9c 3c b2 d1 82 bd 0d 07 81 3d
       0.04239244 0.019158997 -0.063876525 0.06300173
000210 92 b5 6f bc ca b8 8a bd 03 9d 97 3d c2 56 ba bc
       -0.014630692 -0.06773527 0.074029945 -0.022746447
000220 e1 5e 13 bc 6d f9 79 3d 27 d9 32 bd e7 78 5e bd
       -0.008994789 0.061028887 -0.043664124 -0.05431452
000230 87 2f 9d 3c 2e f6 43 bb bb cb b3 3c 37 ee 83 bd
       0.019187702 -0.0029901373 0.021947732 -0.0644192
000240 8b 80 04 3c 39 4b 17 bd e4 2c eb bc a2 69 8c bd
       0.008087288 -0.036936972 -0.028707929 -0.06856085
000250 81 59 39 3d a9 10 01 3c 1c 8f 5e bd ed 5d 7c 3d
       0.045251373 0.007877507 -0.0543357 0.061613012
000260 cf d4 8d 3c a0 57 84 3c f1 7d 50 bd 40 11 99 3c
       0.01731339 0.016155064 -0.050901357 0.018684983
000270 1a f8 80 3d 26 0c 5b 3d 16 4f 4a bd cd e1 8b 3d
       0.062973216 0.053478383 -0.04939183 0.068301775
000280 5e 9a 70 39 6f f5 de 3c e5 51 4c 3d ce ad 61 3d
       0.0002294569 0.027216641 0.04988279 0.055097394
000290 64 53 7e bd 3c f8 87 3d c4 4d 58 bd 8e 4c ab 38
       -0.062091246 0.06639144 -0.052808538 8.168175e-05
0002a0 fd 75 31 bd 89 d3 2b bc fa 26 26 3b d7 2f 52 bb
       -0.043325413 -0.010487446 0.0025352822 -0.0032071972
0002b0 72 7f 98 bc 91 89 4a 3c dc 17 9a 3d d8 03 40 3d
       -0.018615458 0.0123619 0.07524082 0.046878666
0002c0 e5 1d 0c 3d b8 74 fe 3c 50 c1 48 3d 37 24 42 bc
       0.034208197 0.031061515 0.049012482 -0.011849455
0002d0 35 bc 19 ba 2e a3 3a 3c f0 fc 8a bd e8 8c 86 bd
       -0.0005864532 0.011391444 -0.06786525 -0.065698445
0002e0 cb 84 2f 3b d3 23 0a bd a7 ad de bb 85 0c 59 bc
       0.0026782032 -0.03372557 -0.0067956033 -0.013247614
0002f0 19 54 b4 3b ee 57 52 3d 49 fe 8f bc 0d c1 76 3d
       0.0055031893 0.051353388 -0.017577307 0.0602427
000300 04 3d 78 3d 09 9a 4e bd c9 08 77 bd 57 19 7f bd
       0.060605064 -0.050439868 -0.060311113 -0.062280025
000310 97 6e 37 bd 77 d9 b6 bc 32 d6 2a bc 9d d7 4f bc
       -0.0447832 -0.022320492 -0.010427045 -0.012685684
000320 1a e3 fd bc 53 32 88 bc fa a8 01 bd 34 59 7b 3d
       -0.03099208 -0.016625559 -0.03165529 0.061364368
000330 80 3f af bc 42 d1 30 bd 6c f0 f5 3c 46 b6 1f bc
       -0.021392584 -0.043168314 0.030021869 -0.009748047
000340 c0 fa 70 3d 7c 93 48 3d 2e cb 70 3d 20 99 6d bd
       0.058832884 0.048968777 0.058787517 -0.05800736
000350 aa 2c 51 3d d1 94 86 3d 3b 52 28 bd d0 82 73 3d
       0.051067986 0.06571353 -0.041094046 0.059450924
000360 c4 6a 40 3d 95 cb 96 bb 46 fc 1e 3d 21 7d 8d bc
       0.04697682 -0.0046019056 0.038814805 -0.01727158
000370 66 ff 88 bd 66 c1 3b 3c 4e a6 90 3c 25 88 27 bd
       -0.066893384 0.011459684 0.017657425 -0.040901322
000380 75 a8 08 3d 92 0a 58 bd fc cb 89 3d 70 56 81 3d
       0.03336378 -0.052744456 0.0672836 0.06315315
000390 88 25 d1 3c de 81 48 bd 81 08 f5 3c b5 b4 29 3c
       0.025530592 -0.048951976 0.029911282 0.010358025
0003a0 61 79 53 3c 27 6a f4 3c 51 3d 48 3d 61 6c 14 bd
       0.012907357 0.029835774 0.0488866 -0.03623617
0003b0 5a c9 b2 bc dd d6 55 3c 68 d1 0a 3b 1c 90 48 3d
       -0.021824528 0.013051716 0.0021181945 0.04896556
0003c0 10 41 22 bd df 8e 22 3b 97 1e 3f 3c 03 36 61 bc
       -0.03961283 0.0024804396 0.011665008 -0.013745788
0003d0 c9 68 30 3d c5 1e 4e 3c 77 d9 88 bd 2b f1 2f ba
       0.04306868 0.012580578 -0.06682103 -0.0006711657
0003e0 41 66 df bc 99 9e 26 bb e6 d9 5a bc 58 0a 89 bd
       -0.027270438 -0.0025424121 -0.013357615 -0.06691426
0003f0 44 49 98 bc d8 5c 0b bc 40 c7 d9 bc 56 66 91 3d
       -0.018589623 -0.008506022 -0.026584268 0.07099597

bias f4 [200]
000000 17 8e 07 3d a7 10 c0 ba b7 60 71 bd c1 38 43 3d
       0.03309449 -0.00146534 -0.058930125 0.047661547
000010 20 5b e7 bb 51 7f dd bc 9b 67 63 ba 29 42 ee bc
       -0.0070604235 -0.027038248 -0.0008674801 -0.029084282
000020 2e 66 43 bd 9b 44 ab 3b b2 21 e2 bb 16 50 64 3d
       -0.047704868 0.0052266843 -0.0069009895 0.05574044
000030 4f e7 1e bd 33 8f 0f bc cb ea 2e bb 91 05 2a bd
       -0.03879481 -0.008762169 -0.002669024 -0.041509215
000040 78 c9 44 3d a3 35 76 bd 7b e7 c7 bc 9f 74 d4 bc
       0.048043698 -0.060109746 -0.02440237 -0.025934516
000050 91 fd 16 3d b1 83 91 bb 30 37 e2 bc 3c 77 ae 3c
       0.036862914 -0.0044407477 -0.027614206 0.02129709
000060 60 72 78 3c 41 35 61 3c 4a 2b 73 3d a3 71 3a 3d
       0.015163988 0.013745607 0.059367456 0.04551853
000070 25 39 b6 bc dd c3 52 3d 50 6c 96 3d 46 2e 08 3d
       -0.022244046 0.05145632 0.07344878 0.033247255
000080 48 65 82 bd 17 b1 ac bb 04 32 34 bd 62 a1 c3 bc
       -0.06366974 -0.005270134 -0.04399301 -0.023880664
000090 8d 06 6a bd ad dc be 3b 49 99 5c bd 1e 63 be 3c
       -0.057135154 0.0058246464 -0.05385712 0.023240622
0000a0 80 37 d6 bc 04 b5 92 3d 71 9a 38 bd d7 95 4c 3d
       -0.026149511 0.07163432 -0.04506916 0.049947586
0000b0 26 78 57 3d af 23 27 bd 0c ec 94 3d 96 68 98 bd
       0.052604817 -0.040805515 0.07271585 -0.07441823
0000c0 fb d2 1c 3d 1e 7a 3f bd ec df 95 3d 5d a2 71 3c
       0.038287144 -0.04674732 0.073181 0.014748183
0000d0 bc b4 8f bd f1 36 09 3d 0d 95 09 bd 1a 85 05 bd
       -0.07016894 0.03349966 -0.03358941 -0.03259764
0000e0 11 2d 43 3d 06 41 83 3d 69 0b 91 3d 38 00 81 3b
       0.0476504 0.064088866 0.070822544 0.0039367937
0000f0 8d 5b a1 3d 7e df ee 3c 8b 5d a4 3d 99 5d 89 3d
       0.0787879 0.029159304 0.080256544 0.067073055
000100 3a 09 46 bb 24 11 2a 3d 95 86 06 3d ef 2f a4 3c
       -0.0030217902 0.041520253 0.03284319 0.020042388
000110 c8 69 31 bc 5e 2c 57 bd c7 5f 80 3d 02 02 91 bd
       -0.010828443 -0.052532546 0.06268268 -0.07080461
000120 e7 9c 54 bd c6 8c 1a bc cf 01 40 bc 97 16 81 3d
       -0.051907446 -0.009432977 -0.011719181 0.06303137
000130 98 fc 6a 3b 1b 6c 79 bd 7e 2a 80 3d de ed cd 3c
       0.0035856124 -0.060894113 0.06258105 0.025137838
000140 d1 4e 77 bd a8 98 84 3d 3d fa 3f bd 0a a1 00 bd
       -0.0603779 0.06474429 -0.046869505 -0.03140358
000150 27 f1 81 3d 23 2b cf 3c 4a 3e 61 3d 39 d5 1f bc
       0.06344824 0.025289124 0.054991044 -0.009755426
000160 42 3e 63 bd 40 39 66 bc f8 bc fc 3c 76 39 6e 3d
       -0.055479296 -0.014051735 0.030851826 0.058160268
000170 23 5d c4 3c 27 b5 cb bc d9 0a 46 3d c0 18 36 3d
       0.023970192 -0.024866654 0.04835019 0.044457197
000180 e0 b4 80 bd 67 5e 0b bd 05 41 7f bd c0 01 62 bd
       -0.06284499 -0.034025576 -0.062317867 -0.05517745
000190 c3 08 21 3d ad c4 8a 3d 23 46 82 bc f5 4b dc bc
       0.039314996 0.06775794 -0.015902584 -0.026891688
0001a0 c0 59 f7 3a 5d 4a 50 bd 42 cc 61 3d cf 7c a3 bc
       0.0018871352 -0.05085217 0.055126436 -0.019956974
0001b0 6b fd d6 3c eb df 70 3d 66 14 6f 3d e8 25 d2 3c
       0.026243886 0.058807295 0.058369063 0.02565284
0001c0 b8 4d 44 bb 25 61 05 bd af 79 a4 3d 08 7d 8e bb
       -0.002995355 -0.032563347 0.08031022 -0.004348401
0001d0 61 ca 8e 3d b3 ed 50 bd c2 a4 9e bd ef 61 8c 3d
       0.069721945 -0.051007938 -0.07746269 0.06854617
0001e0 20 5b 3b 3d 0a bd 73 bd 87 72 bd 3c d5 23 6b bd
       0.0457412 -0.059506454 0.0231259 -0.05740722
0001f0 d4 46 b6 3c d0 5c b0 3c cf e3 de bc 0f 74 d1 3b
       0.02225057 0.021528631 -0.027208237 0.006392009
000200 97 9a 1e bd fe d1 4e 3d 56 55 68 bd df f8 83 3d
       -0.038721647 0.050493233 -0.056722008 0.06443953
000210 bf ac 5d bd e2 22 92 3d 3a 31 83 3d ac f9 e8 3c
       -0.05411982 0.071355596 0.064058736 0.028439365
000220 54 6c 83 3c 60 d4 6f bd 83 c8 00 bb 3c dd 2d 3d
       0.016042866 -0.058552146 -0.0019650764 0.042447314
000230 43 f6 ba bc 9e 3f 86 bc 87 c8 03 bd 72 d8 22 bc
       -0.022822505 -0.016387757 -0.03217366 -0.0099393
000240 50 82 89 bc 46 9d 29 3d 11 f5 c0 3c 68 86 1c bd
       -0.01678577 0.041409753 0.023554357 -0.038214117
000250 ed 97 d2 bc 84 a2 00 bd 7b f8 a8 bd ac 99 e3 bb
       -0.02570721 -0.031404987 -0.08250519 -0.0069458093
000260 2e 8e 96 bc 6c 9c a9 3c 3c 7f b6 bc a5 eb 02 3d
       -0.018378343 0.02070447 -0.022277467 0.03196301
000270 1d 1a de bc d5 3e 23 3d 30 2c 8b 3d 81 85 5e 3d
       -0.027112061 0.039854843 0.067955375 0.054326538
000280 0a 32 7f 3d be e6 92 3c ab 7d 7c 3c 8a 82 42 3d
       0.06230358 0.017932292 0.015410821 0.047487773
000290 1f 9d 9f bd 90 08 6f 3d b2 37 a9 bc bd 0a a6 bd
       -0.0779364 0.058357775 -0.02065644 -0.08107517
0002a0 0c 6e 01 3d 23 5f 70 bd 8f 7c 97 3b 6a 28 2d bd
       0.03159909 -0.05868448 0.004623003 -0.04227487
0002b0 60 30 c6 bc 0b 02 c1 3b 9f 97 6d 3d 27 af 93 bd
       -0.024192989 0.005890136 0.058005925 -0.07211142
0002c0 31 a6 e6 bc 34 f5 26 3d 36 2d 53 3d fa 3b 83 3d
       -0.028155418 0.040761188 0.05155679 0.06407924
0002d0 84 ad 88 bd 80 3f 8e bc 25 5c a8 bb b2 cb ef bb
       -0.066737205 -0.017364264 -0.0051379376 -0.0073179835
0002e0 9c c7 94 3c df 9a 18 3d f9 67 25 bc 79 51 9b 3c
       0.018161587 0.03725707 -0.01009559 0.018959748
0002f0 2f 40 60 3d 41 ae 99 bd 8e d3 16 3d 31 89 5f bd
       0.05474871 -0.075039394 0.036822848 -0.054574195
000300 72 f2 3d 3c 24 83 2e 3d 04 58 be 3c 49 0e 83 ba
       0.011593448 0.042605534 0.023235328 -0.0009998764
000310 9e 30 1e bd 8f 77 34 3c 5f 03 2d bb d4 e0 8e 3d
       -0.038620584 0.011014833 -0.0026399714 0.06976476

weight f4 [200, 200]
000000 6e 7d 3e 3d 20 39 ae bc f8 2d 01 3d 6e be ce 3c
       0.046506338 -0.021267474 0.03153798 0.025237288
000010 41 21 3b 3d ca 92 8c bc 11 02 f6 b9 5b 62 a4 3b
       0.04568601 -0.017159838 -0.00046922316 0.0050166077
000020 50 86 17 3c b2 40 62 bd 48 7c 46 3c 7b 45 87 3d
       0.009248331 -0.05523748 0.012114592 0.06605049
000030 cc 4a 33 bd c1 90 32 3c b0 e1 5e bc cd 94 14 bd
       -0.043772504 0.01089877 -0.013603613 -0.03627472
000040 5f 4e 81 bc 94 fa e6 3c 44 de d0 bc 82 dd 2e bd
       -0.01578444 0.028195657 -0.02549661 -0.042691715
000050 38 98 0f bd 61 47 9e bc 86 3a 35 bd ce 7e 2e 3c
       -0.035057276 -0.019321145 -0.044245265 0.01065035
000060 ba a9 e4 3c d0 bd e5 3c bc 48 e8 3c bf 5a e2 3c
       0.027912963 0.028044611 0.028354995 0.027631162
000070 f9 e2 64 3d 51 54 51 bc a2 20 40 3d 8d 28 63 3d
       0.05588052 -0.01277645 0.04690612 0.055458594
000080 1b 72 56 bd ab bb dc bc bc 6c 87 bb 12 d2 18 3d
       -0.052354913 -0.026944956 -0.004132835 0.037309714
000090 4f fa 83 3d 59 06 13 bc fa 23 fc 3c 47 0b 94 bc
       0.06444227 -0.008973681 0.030778874 -0.018071784
0000a0 13 25 91 3c 7b de 86 3d ee 39 b4 bc 08 96 80 3c
       0.017717874 0.065854035 -0.02200028 0.01569654
0000b0 c8 40 3b 3c ac 1e c4 3b 46 c4 65 3b 6c ff a2 bc
       0.011429019 0.0059851017 0.0035059615 -0.019897185
0000c0 ec 18 f2 3c d7 75 81 3d 58 90 66 bc 62 9f 39 bb
       0.0295529 0.06321304 -0.0140725 -0.002832376
0000d0 92 99 da bc 37 b9 6f bd c7 16 92 3d 15 1b 67 bd
       -0.026684556 -0.058526244 0.07133251 -0.05642231
0000e0 9d 90 85 3d 79 41 21 bd 51 23 4b 3c 3c 03 44 bc
       0.065217234 -0.03936908 0.012398557 -0.011963662
0000f0 a7 b2 f0 3c 5b 9b 25 3d bb 61 10 bd e5 f0 3f 3d
       0.029382063 0.04043136 -0.035249453 0.046860594
000100 2b 47 37 bd 67 b3 36 3d 97 cc 03 3d d7 44 80 3d
       -0.044745605 0.044604685 0.032177534 0.0626313
000110 3f e9 3e bc 62 44 69 3d 2f 6a 15 bd cb d9 a0 3c
       -0.01165229 0.05694998 -0.036478218 0.019635102
000120 51 c3 ac 3c 22 e6 3d 3c 4b 74 66 3d 9e a1 09 bd
       0.021089228 0.0115905125 0.05626325 -0.033601396
000130 44 28 46 bd 33 fe 02 bd a5 2c 53 3d 3f b8 cc 3c
       -0.048378244 -0.031980705 0.05155625 0.0249902
000140 33 c9 62 3c 5a ac 26 3d 2e df 59 3d 05 0d 8a bd
       0.013841915 0.04069171 0.053191356 -0.067407645
000150 9f 07 1b bd 62 5a 8e bc a6 d9 61 bb 79 0d a4 bc
       -0.037849065 -0.017377082 -0.0034462004 -0.020025956
000160 0b 05 77 bb 09 b4 94 3d a3 b7 29 bc 6b e3 6d 3d
       -0.0037692215 0.072609015 -0.010358724 0.05807821
000170 24 43 11 bd e1 56 c9 bc 8a b2 e8 bb e3 70 cf bb
       -0.03546442 -0.02457756 -0.0071013616 -0.006330596
000180 c1 98 8e 3c cb 2f 48 3d fe 27 7b bd 8c 0a 3c 3c
       0.017406823 0.048873704 -0.061317436 0.011477124
000190 ac 92 19 3d cf f4 30 3d 47 f3 4c bd aa 1a 37 bd
       0.037493393 0.043202218 -0.050036695 -0.044703163
0001a0 8d c6 2f 3d 77 2d ec bc dc b3 eb bc 50 64 37 bd
       0.042913962 -0.028830273 -0.028772287 -0.0447734
0001b0 51 b5 a0 bc 6f 15 09 3d 41 2a 88 3c 0b 89 91 3d
       -0.019617708 0.033467706 0.01662171 0.07106217
0001c0 a1 3e 2e bc 3d a2 8e bd 6b c7 a1 3c 7b 4a 1d 3d
       -0.010635049 -0.06964538 0.01974841 0.03840111
0001d0 76 cd aa 3c bd a5 2a 3d 62 a7 8d bd 0e ac 5b 3d
       0.020849925 0.041661967 -0.06916691 0.05363088
0001e0 10 b0 86 3d 15 d8 c3 3c a9 c3 20 3d ed 7f ba bb
       0.0657655 0.023906747 0.039249096 -0.0056915195
0001f0 48 ea 84 bc 91 19 0f 3b 5a f0 b3 bc 38 1a 03 bd
       -0.016224995 0.0021835307 -0.021965194 -0.032007426
000200 8b 65 ee bb 2b 51 c3 bc 93 a4 05 bd 2f df b7 3c
       -0.0072752885 -0.023842415 -0.032627653 0.02244529
000210 18 c7 06 bd fc 99 70 3d f3 4e 26 3d 7c 80 22 3d
       -0.032904714 0.0587406 0.040602636 0.039673313
000220 1c d1 fe 3c 7f 33 08 bc 4c 52 97 bb 30 af 6c 3d
       0.03110557 -0.008313059 -0.004617965 0.05778426
000230 f7 f0 67 3d e7 1d 17 3d 63 9b 0c 3d 99 1c 89 3c
       0.056626286 0.03689375 0.034327876 0.01673727
000240 00 33 75 bd 65 86 2e 3d 6d 2d 40 ba 23 39 28 bc
       -0.05986309 0.042608637 -0.0007330988 -0.010267529
000250 3b 0b 5c bd 2c ce bd 3c 68 e1 ce 3c 33 14 96 3c
       -0.053721648 0.0231696 0.025253966 0.018320179
000260 a1 23 86 3d 39 3b 57 bc 1c 03 88 3d dd 1d 79 bd
       0.065497644 -0.013136678 0.06641218 -0.060819495
000270 a8 01 ce 3c b4 d2 f2 3c cb e3 37 bd 08 a4 2c bd
       0.025147274 0.029641487 -0.044894975 -0.04214862
000280 f3 f9 0f 3d 4c 8a 9d 3c 06 c5 09 3c 72 62 c0 3b
       0.03515048 0.019230984 0.00840879 0.0058711106
000290 2e a8 a2 bc 0f d0 2e 3d 2d e3 49 bd 38 fb 22 3d
       -0.019855585 0.04267889 -0.049288917 0.039790362
0002a0 80 84 c8 bc 77 3f 79 bd d2 aa 5b 3d a5 a8 95 bd
       -0.024477243 -0.06085154 0.053629704 -0.07307557
0002b0 c8 ae c9 bc 9d a4 84 3d 32 46 89 3d cd ae 3c 3d
       -0.024619475 0.0647671 0.06702842 0.04606514
0002c0 f0 02 c0 3c 00 a7 92 bc 68 9e ed 3c b8 e8 4b 3c
       0.0234389 -0.017901897 0.029006198 0.012445621
0002d0 35 a9 77 bd ea 38 28 3d e9 bb 1b 3c ba 52 8c bd
       -0.060464103 0.041069902 0.0095052505 -0.06851716
0002e0 e4 83 d1 bc 3c 76 cb 3c 65 9e 92 3c f0 77 8c 3b
       -0.025575586 0.024836652 0.017897794 0.0042867586
0002f0 85 4a 1a bd 0e a7 0d bd d2 31 e3 3c 4f d2 87 3d
       -0.037668724 -0.034583144 0.027733717 0.0663191
000300 68 a2 72 3d 93 08 4e 3d ac 35 23 3d dc a0 d4 bb
       0.059236914 0.050301146 0.039846107 -0.0064889025
000310 ec e7 75 bd 85 6c a7 3a b7 4f 15 bc c0 99 b5 3c
       -0.06003563 0.001277343 -0.009113244 0.02216804
000320 0f 0e 11 3d d1 34 0c 3d 96 10 f4 bc a3 ee 2f 3d
       0.035413798 0.034230057 -0.029793065 0.04295219
000330 fa 39 4a bd d1 6e bf 3c 16 ec 94 bd 30 d5 09 3d
       -0.049371697 0.023368271 -0.07271592 0.033650577
000340 d1 96 1b 3d be a3 f9 3c 51 12 07 bd f5 b4 ad 3a
       0.037985627 0.030473586 -0.032976452 0.0013252782
000350 13 1a 8f bc b3 be ee bc 77 08 33 3d 57 08 61 3d
       -0.017468488 -0.029143667 0.043709245 0.054939594
000360 54 e9 8e 3d a5 65 1f 3d 0f 9e 4d 38 a8 12 86 bc
       0.069780976 0.038915295 4.9023012e-05 -0.016366318
000370 31 16 2e bd cb a3 78 3d d9 e7 85 bc 69 1c 2d bd
       -0.042501632 0.06070308 -0.016345905 -0.042263422
000380 cd ba 98 3b 4d 5b d0 3c 1e 0d 36 bd da ee 84 bd
       0.0046609403 0.02543416 -0.044446103 -0.0649087
000390 eb ac 1d 3d 26 06 2f 3d 16 a1 9f bc 57 f3 2c bd
       0.038494986 0.042730473 -0.019485991 -0.042224254
0003a0 53 0a 88 3d 26 25 36 3c d6 ca aa 3c b1 76 84 3d
       0.06642594 0.011117255 0.020848673 0.06467951
0003b0 95 86 91 3d c9 89 ac bc 0e e3 e1 3c c2 4f bc 3c
       0.071057476 -0.021061795 0.027574088 0.02298725
0003c0 99 61 16 3c 5c 7f eb bc ce cf 0f 3b 2a f9 0c 3d
       0.0091785425 -0.028747253 0.002194393 0.03441731
0003d0 23 09 3b bd ba 25 96 bb 14 a4 96 3c ac f0 2e bd
       -0.04566301 -0.004582134 0.018388785 -0.04270999
0003e0 51 98 25 3d 40 45 dd 3c 7c b8 a9 bc 81 60 83 bb
       0.040428463 0.02701056 -0.020717852 -0.004009307
0003f0 b1 83 2b 3c 09 88 0f 3d 89 03 8f bc 52 fb 14 bd
       0.010468409 0.035041843 -0.01745774 -0.03637249

bias f4 [200]
000000 75 80 2c bc 71 fa 9d bd 1f cc 8e bd e1 8f a0 3b
       -0.010528673 -0.077137835 -0.06972527 0.004899964
000010 8b c2 fb bc cc 1f f2 bb 90 b7 8a bd b2 44 45 3d
       -0.030732414 -0.0073890444 -0.06773293 0.048161216
000020 f4 4c 29 3d c3 8d bd 3c 90 b5 91 3d 42 d8 08 bd
       0.041333154 0.023138886 0.071147084 -0.033409365
000030 f7 d5 a2 bc 34 67 09 bd 19 08 f5 3c 12 fa b6 3c
       -0.019877417 -0.033545688 0.029911088 0.02233604
000040 88 99 ef bc 4e 34 cd 3c b8 f4 1f bd f3 f5 5c bd
       -0.029248014 0.025049355 -0.03905174 -0.053945493
000050 3d 46 48 3c 7a a7 a7 3b d5 da 6c 3d 29 0f df 3b
       0.012223777 0.0051164003 0.057825882 0.006807227
000060 d8 28 03 bb 70 d4 1c 3d 04 b2 34 3c 48 1a 69 3d
       -0.0020013358 0.038288534 0.01102877 0.05690983
000070 30 96 7d 3c fe 0c 87 3d c2 43 95 bc b7 47 ee bc
       0.015477702 0.06594275 -0.018220786 -0.02908693
000080 d2 2c 26 3d d6 18 29 bd 5f be f7 bc ab 5f 0b bc
       0.040570088 -0.04128345 -0.030242143 -0.008506696
000090 3f f2 39 3d cc f4 55 bb 76 37 83 3d df bc 7e bd
       0.04539704 -0.003264713 0.06407063 -0.06219184
0000a0 6a 87 fb 3b ed 8d 7c bd 98 30 a0 3c 1d 1d 01 bd
       0.0076760547 -0.06165879 0.019554421 -0.031521905
0000b0 dc f0 3b 3d 26 04 8c bc 68 d8 07 b9 1d ba 50 bd
       0.045884 -0.017091822 -0.00012955221 -0.05095874
0000c0 84 d8 94 3d 71 38 40 3c d0 ea 8f bd cf 21 63 3d
       0.072678596 0.011732207 -0.07027209 0.055452164
0000d0 25 81 61 bd 93 3a a5 3d ba 91 16 3d 57 e8 b6 bc
       -0.055054802 0.08067813 0.03676007 -0.022327585
0000e0 4f a4 a9 bc d9 fb b6 3c fa dd 8b 3d ca 1e 85 bd
       -0.020708231 0.022336887 0.06829448 -0.06500013
0000f0 2c de 54 bd ba 25 92 bd c6 46 52 bb 35 f2 e3 bc
       -0.051969692 -0.07136102 -0.0032085641 -0.027825454
000100 e4 33 f1 3c 65 7e 02 3d 68 51 ef bc 5a 8b 2e 3c
       0.029443689 0.03185882 -0.029213622 0.010653341
000110 21 54 1b 3b 03 77 8e 3d 61 b1 8e 3d 7c 49 08 bc
       0.0023701268 0.069562934 0.06967426 -0.008318301
000120 42 fa 82 bb 40 95 65 3d d3 09 20 bc bc 7c 37 3d
       -0.003997118 0.05605054 -0.009767967 0.04479669
000130 60 64 68 3c e5 ba 9b 3d 70 6a 71 bd 25 eb 18 3d
       0.0141840875 0.07604007 -0.058939397 0.037333626
000140 df 7d 4c 3d f6 ae 08 3d b3 e8 16 bd ad 81 3c 3d
       0.049924728 0.03336998 -0.036843013 0.046022106
000150 57 ca a0 3c f4 b8 2f bd 49 4b 5b 3d d2 46 70 bc
       0.019627733 -0.042900994 0.053538594 -0.014665322
000160 3a 8e dd 3c 87 c1 0d bd e1 f1 c6 3b dd 9c 61 bd
       0.027045358 -0.03460839 0.0060713147 -0.055081237
000170 51 74 92 bd 8c 10 29 bd 0b ab 35 3d fa 27 a0 3d
       -0.07151092 -0.041275546 0.044352572 0.07820125
000180 79 f4 95 ba 33 71 7e 3d 3e 44 4c 3d 90 d3 bb 3c
       -0.0011440656 0.062119674 0.04986977 0.02292803
000190 64 38 ef bc 4b bb 4f bd 93 bb 52 bd fe a7 1a bd
       -0.029201694 -0.050715726 -0.051448416 -0.037757866
0001a0 9a 07 5c 3d a5 e5 fe 3c 62 af 9d bd 18 ad 2c bd
       0.053718187 0.031115362 -0.07699467 -0.042157263
0001b0 c3 4b 85 3d 84 d1 6e bd 09 55 40 bd 3a f8 74 3d
       0.06508591 -0.05830528 -0.046956096 0.05980704
0001c0 09 e9 cc 3c 98 4a 24 3d 1c b3 96 3d 75 43 7c 3b
       0.025013464 0.0401102 0.07358381 0.0038492356
0001d0 c9 77 58 3d 31 0d 57 3d 4b 5a 05 3d 92 d8 99 bd
       0.05284861 0.052502815 0.032556813 -0.07512011
0001e0 8a 29 5f 3d 77 e7 85 bd 05 6c 92 3c 3b 73 8a bd
       0.054482974 -0.06538289 0.017873773 -0.0676026
0001f0 09 4b f4 3c a5 6f b9 3c 04 1b 77 bc 26 e5 93 bb
       0.029820936 0.022636244 -0.015082125 -0.0045134006
000200 67 e5 cb 39 6a 1c 84 bc eb be 74 bc e7 4c 81 bd
       0.00038890095 -0.01612683 -0.0149380965 -0.06313496
000210 42 e5 7c bd 6e 5a 98 3d 0d 54 71 bd 09 62 a4 3b
       -0.061742075 0.07439123 -0.058918048 0.0050165695
000220 86 95 4b bc 54 b4 8d bd f3 c9 41 bc 33 ea 90 bd
       -0.012425786 -0.069191605 -0.011827934 -0.0707592
000230 66 30 7f ba f9 04 14 ba 27 03 b1 3c b6 bf 91 ba
       -0.000973469 -0.0005646493 0.021607948 -0.0011119756
000240 95 69 2a 3c 01 12 1a bd 7f 5f a2 bd cc d3 85 3d
       0.010401149 -0.037614826 -0.07928371 0.06534538
000250 40 71 0c 3d 24 06 d5 3b ad 74 a2 3d bd da 59 3d
       0.03428769 0.006500976 0.079324104 0.05318712
000260 31 ab af 3c dc 9a 81 3d 0e e2 c2 3c 8c 8a 1e 3d
       0.021443935 0.06328365 0.023789432 0.038706347
000270 42 42 47 3d a2 d6 0c bc 98 51 12 bd df 84 50 3c
       0.048647173 -0.008596094 -0.035722345 0.012726991
000280 32 f8 15 3c a2 0b 72 bd 43 58 3f bc 7e 37 8b bd
       0.009153413 -0.059093125 -0.011678758 -0.06797694
000290 8f 01 1d bc f9 bd 63 3d c0 5c 3d 3d 46 09 a0 3c
       -0.009582891 0.055601094 0.04623103 0.019535672
0002a0 10 ae 37 bb f5 e4 12 bd 85 9a 93 bd da fb 61 3d
       -0.0028027333 -0.03586288 -0.07207207 0.055171825
0002b0 62 f7 80 3d fe 6a c1 3c 74 72 45 bd 52 59 ca 3c
       0.062971845 0.023610588 -0.048204854 0.024700794
0002c0 30 f6 85 3b af 0d 47 bc 76 0e 1e bd b0 9c 5d bd
       0.0040881857 -0.0121492585 -0.03858801 -0.054104507
0002d0 d4 3f 42 3d f5 55 6e 3d eb 55 67 bd bb 9e 87 3d
       0.047424152 0.058187444 -0.056478422 0.06622072
0002e0 4a 44 cd 3b f5 c8 84 bd 95 ed e1 b8 53 c3 1e 3d
       0.006264244 -0.06483642 -0.00010773089 0.038760494
0002f0 2a 3b 37 bd 85 7e 70 bd c6 57 36 bc 37 19 00 bd
       -0.044734158 -0.05871441 -0.011129325 -0.031274047
000300 8b e5 3b bd 20 13 87 3c 43 46 66 bd 4b ff 7d 3d
       -0.045873206 0.016488612 -0.05621935 0.062011044
000310 e8 e2 59 bd 76 de 93 3d 7e 7a 53 3d 7e 1d ae 3b
       -0.05319491 0.072201654 0.05163049 0.0053135743

weight f4 [200, 200]
000000 f5 c2 6b bd b4 79 35 bd d7 ef 36 3c 0c 46 93 bd
       -0.057558972 -0.04430552 0.011165581 -0.07191095
000010 5d 2e 1b 3d 76 fe 82 bd 3f ca 2a bd 72 df 33 bd
       0.037886012 -0.06396191 -0.041696783 -0.043914266
000020 e9 da 28 bd 44 c0 71 3d 56 51 55 bd f2 b9 e6 3b
       -0.041224394 0.05902125 -0.05207952 0.0070412094
000030 b2 4b 93 3d b9 b4 12 bd ba b2 68 3c 7d 23 42 bd
       0.07192172 -0.03581688 0.014202768 -0.047397126
000040 5a 7d 06 bd cd f1 20 bd e2 69 e1 3b 14 cc 4b 3d
       -0.03283439 -0.0392931 0.0068790773 0.04975517
000050 78 bf 66 bd 8b 60 3c bd 80 aa 61 bd 61 1a 11 bb
       -0.056334943 -0.045990508 -0.055094242 -0.0022140967
000060 69 d9 1c 3c 4a ce 9f 3c 3a 8b be bc 1d bf df bc
       0.009573319 0.019507546 -0.023259748 -0.02731281
000070 a9 33 98 3c 31 f3 77 bd 4e de 90 3d b4 72 c8 3c
       0.018579321 -0.06053466 0.07073651 0.024468757
000080 ed 0b 73 bd d0 c6 a3 bc ae 87 0c bd 89 f3 0b 3d
       -0.059337545 -0.019992262 -0.03430908 0.0341678
000090 4f 8e 8d bd ed 84 56 3d 67 0c 31 3d aa c3 27 bd
       -0.06911909 0.05237286 0.04322472 -0.040958084
0000a0 5e e8 cf bc 10 24 fd bc 78 53 3a bd 7a 0a 8a bd
       -0.025379356 -0.030900985 -0.04548976 -0.067402795
0000b0 ea 51 a8 3c ff 8e e5 3c 81 64 83 bd 27 b6 77 bd
       0.020546872 0.028022287 -0.06415654 -0.06047645
0000c0 f0 81 d3 ba e4 c4 f5 bb 62 22 c6 bc c7 22 98 3d
       -0.0016136747 -0.007500278 -0.024186317 0.07428508
0000d0 d4 b8 35 bd 3c 88 cc bc 32 30 a4 3a c6 dd 00 bd
       -0.04436572 -0.024967305 0.001252657 -0.0314615
0000e0 47 c4 35 3c e4 6a 9b 3a 6c 96 55 3d 09 40 94 bc
       0.011094159 0.0011857417 0.052145407 -0.01809694
0000f0 b6 67 18 bd 43 74 77 bd 35 30 6a bd 6e 1a a7 bc
       -0.03720828 -0.06041361 -0.05717488 -0.020398345
000100 3f ed f0 3c 3c ac e9 3b 07 79 a5 bb a9 91 17 3d
       0.029410003 0.0071311276 -0.005049828 0.037004147
000110 32 7e fa 3c ad fe 03 bd e2 9c 23 3b fe 21 91 3c
       0.030577753 -0.0322253 0.0024965336 0.017716404
000120 ff 93 3b bd d0 bf 61 bc 85 0d 54 3c f4 13 b8 bc
       -0.045795437 -0.013778642 0.012942676 -0.022470452
000130 2b e9 a5 3c fb e8 a6 bc d5 4a 6b 3d 9c 07 7d bd
       0.020252785 -0.020374766 0.057444412 -0.061774835
000140 fd 8e 8f 3d d9 24 b0 ba 4f 63 d3 3c 7b 5a b3 bc
       0.07009695 -0.0013438716 0.02580419 -0.02189373
000150 10 bc 83 3d 37 03 8b bc 86 f9 3a bd 1e c5 5a 3d
       0.064323545 -0.016969306 -0.04564812 0.05341064
000160 5e 67 59 bc 7b b1 52 bc ea d4 3b 3d 55 94 94 3c
       -0.013269274 -0.012859697 0.045857348 0.018137136
000170 09 7d 5a 3d 85 8f 08 3c e4 2e 67 3d f5 ee 02 bd
       0.0533419 0.008334999 0.056441203 -0.03196617
000180 a2 01 27 3c 9b 98 26 bd 5e 7e 71 3d a9 96 83 bd
       0.01019326 -0.04067288 0.058958404 -0.064252205
000190 a7 8e 71 bd e5 95 8d 3b 68 c5 78 bd 37 c1 24 bc
       -0.058973935 0.0043208473 -0.060735136 -0.010055832
0001a0 4d 1e 0d bd 7b e3 77 3d 0b 91 4a bd 68 e9 07 3d
       -0.034452725 0.060519677 -0.04945473 0.033181578
0001b0 33 e7 e0 3b 57 d9 19 bd e0 b0 97 3d 1e d5 ca 3c
       0.0068634986 -0.037560787 0.07406783 0.024759825
0001c0 19 7a 5f 3d 41 f8 62 bd 46 96 69 bd 69 fa 41 3d
       0.0545598 -0.055412535 -0.057028078 0.04735795
0001d0 e3 cd 9c bc c8 24 6e bd e4 b1 05 3d 8c 91 7e 3d
       -0.019141143 -0.058140546 0.032640353 0.062150523
0001e0 ef 93 a4 bb 8f 1d 3c 3d 89 f0 85 b8 9d 7a 1c bc
       -0.005022518 0.045926627 -6.3867374e-05 -0.009550718
0001f0 8b c4 a4 bc 0f 73 3d bd f5 e8 86 bd 37 1d 8c 3b
       -0.02011325 -0.046252307 -0.06587402 0.0042759436
000200 e6 cd 6e bd 39 b4 bd 3b 10 7e 6a bc 24 dc 3e bd
       -0.05830183 0.0057893065 -0.014312282 -0.04659666
000210 bb 2f 56 bc d5 ee 6b bd d1 14 34 bd 74 40 39 3d
       -0.013072903 -0.057600815 -0.043965165 0.045227483
000220 c2 8b 03 bb 30 08 90 3b 56 9c f4 ba 0d 6b ff 3b
       -0.0020072316 0.0043955073 -0.0018662314 0.007794744
000230 ba 1f 85 3d 64 5f 6d 3d 8d c2 4c 3d fa bf 7a 3d
       0.06500192 0.0579523 0.049990226 0.06121824
000240 75 6f b5 3c 5b ab 90 3c c1 72 06 3c 20 a4 fe bc
       0.022147873 0.017659834 0.00820607 -0.03108412
000250 65 0a 5c bb 23 8d 9c 3b 82 2c 58 bd a0 0c cf bc
       -0.0033575532 0.004777567 -0.05277682 -0.025274575
000260 f1 9f 1b 3d 9a d4 fa 3b 73 99 2c 3d d9 00 5d bc
       0.03799433 0.0076547386 0.042138528 -0.013488972
000270 3f 76 2f 3d b0 83 bb bc 65 75 1a bd 3d 03 53 bd
       0.042837378 -0.022889942 -0.037709612 -0.05151676
000280 bb 71 af bb 0c db 5c bd a0 73 5a 3d 8a f3 50 bd
       -0.005354134 -0.053919837 0.053332925 -0.051013507
000290 53 a2 40 bd eb 4d c9 bb 24 99 37 3c 4b 6f 08 bd
       -0.047029804 -0.0061433217 0.011205945 -0.033309262
0002a0 d9 5a 34 bd f9 6c 5d bd 24 2f 24 3d 2b 2a 6e bd
       -0.04403195 -0.054059003 0.04008402 -0.058145683
0002b0 44 76 a5 bb e3 23 17 3d 11 c8 e7 bc e6 46 63 bd
       -0.0050494988 0.03689946 -0.028293641 -0.055487536
0002c0 1e 9d fb bc 99 4f 51 3c ad 53 30 bd eb 47 41 3c
       -0.030714568 0.012775325 -0.04304855 0.011796932
0002d0 d6 30 4a 3d 39 23 de 3c 64 ef f7 bb 56 fa 45 3d
       0.04936298 0.027116405 -0.0075663794 0.048334442
0002e0 b6 79 82 bc 51 94 06 bd 09 8e 79 3b 18 7a e0 3c
       -0.015927177 -0.03285629 0.0038079044 0.027401969
0002f0 2c 15 8d 3c 44 e1 65 bd 8b da 2f bd 78 64 48 3d
       0.01722201 -0.056123033 -0.04293303 0.04892394
000300 e1 60 e2 bc d3 0b 45 3d 84 d6 69 bd aa de 87 3d
       -0.027634086 0.04810698 -0.057089344 0.06634267
000310 15 ae 67 bc 72 0d 32 bd ba a8 97 3d 86 8d 55 3d
       -0.0141406255 -0.043469854 0.07405229 0.05213692
000320 51 e0 48 bd d3 4a 20 3d 96 60 91 3c 1b 2e 7f bc
       -0.04904205 0.039133858 0.017746251 -0.015574957
000330 11 a9 1f bd 27 63 c6 39 ca e0 db 3b 1e d1 a1 3c
       -0.038979594 0.00037839377 0.0067101466 0.019753035
000340 2d b5 a9 3c 3f 5f 16 bd 11 08 81 3c e5 dc 73 bd
       0.020716274 -0.036711928 0.015750917 -0.059536833
000350 83 ea 99 3c 46 f3 90 3d 57 d5 bb bc bc fb 58 3d
       0.018788582 0.07077651 -0.022928877 0.052974448
000360 c1 ad 8a 3c 47 c1 d9 3c f0 43 2a 3d f1 71 17 3d
       0.016928555 0.02658142 0.041568696 0.036973897
000370 c2 49 47 3d 68 c0 cc bc 48 c3 52 3c f2 7e 55 bd
       0.048654325 -0.02499409 0.0128639415 -0.052123018
000380 3a 31 ac 3c 5b f7 7a bd 8e d3 46 3d 43 ca 07 3d
       0.021019567 -0.061271053 0.048541598 0.033151876
000390 e5 d3 03 bd e6 37 71 3d cd 83 59 3c 1a c0 28 bd
       -0.0321845 0.0588912 0.013276053 -0.041198827
0003a0 f5 f0 7e 3d b9 67 da 3c 1e 3d 63 bd 32 4c 47 3d
       0.062241513 0.026660787 -0.055478208 0.04865665
0003b0 d6 41 fb bb d0 ee eb 3c 93 90 03 bc 12 60 31 3b
       -0.0076677604 0.028800398 -0.008030075 0.002706532
0003c0 e8 2e 89 bb b2 eb c9 3c 54 de b3 bc 2b 20 31 3d
       -0.0041865 0.024648521 -0.0219566 0.04324357
0003d0 47 1d 47 bd 0b 2c b1 3c 77 f5 a9 3c 02 53 70 3d
       -0.048611905 0.021627447 0.02074693 0.058672912
0003e0 a8 9f 76 3d 5e b6 02 3d 86 c1 72 bd 60 b2 4f 3d
       0.060210854 0.0319122 -0.05926659 0.05070722
0003f0 22 da 5e 3d fb 8e 6a bd 03 42 11 bc c4 97 5f bd
       0.054407246 -0.057265263 -0.008865836 -0.054588094
